flappy_bird_model.pth (torch, 249541 bytes, 31 tensors)

shared_layers.0.weight f4 [128, 4]
0	0x3d9b5ff6	0.075866625
1	0x3eea6e82	0.45787436
2	0xbf073b81	-0.5282517
3	0x3d99e9ee	0.07515322
4	0x3f029612	0.5101024
5	0xbda56795	-0.08076397
6	0x3d672db6	0.056440078
7	0x3f7d2f31	0.98900133
8	0x3e5265de	0.20546672
9	0xbe58b73b	-0.21163647
10	0xbe1231e7	-0.14276849
11	0x3fa01db2	1.2509062
12	0xbef20542	-0.47269636
13	0xbf5cdd01	-0.86274725
14	0xbdd4b191	-0.103854306
15	0x3f956a75	1.1673113
16	0xbf211748	-0.6292615
17	0x3deaa936	0.11458056
18	0x3f0ccfd1	0.550046
19	0x3d4bc014	0.049743727
20	0xbfcc1d37	-1.5946416
21	0xbf79d1ad	-0.97585565
22	0xbff72222	-1.9307292
23	0xbf7cd211	-0.98758036
24	0x3f1c6747	0.6109509
25	0x3f623f6f	0.8837804
26	0xbd86b8bf	-0.06578206
27	0xbe1d16b3	-0.1534069
28	0x3f4e76fd	0.8065031
29	0xbeaa85d5	-0.3330523
30	0xbdc612fe	-0.09671591
31	0xbf363d7c	-0.7118757
32	0x3f61abf2	0.8815299
33	0x3c863056	0.01638047
34	0x3e7cb2b0	0.24677539
35	0xbe50009a	-0.2031273
36	0x3f685f6a	0.9077059
37	0x3f82c615	1.02167
38	0xbe6fc1b5	-0.23413737
39	0xbdaee71b	-0.085401736
40	0x3e32420a	0.17408004
41	0xbe3c5b28	-0.18394148
42	0x3e964f01	0.2935715
43	0xbf40dab9	-0.75333744
44	0x3f845de0	1.0341148
45	0xbe947fbc	-0.29003704
46	0x3f7aa958	0.9791465
47	0xbfc39633	-1.5280212
48	0xbf068a8e	-0.5255517
49	0x3f0d5290	0.55204105
50	0xbee34d36	-0.44394845
51	0xbe6206d6	-0.2207292
52	0x3ead5e4a	0.33861
53	0x3f8105d9	1.007991
54	0x3fc1f662	1.5153315
55	0xbe560607	-0.20900737
56	0x3edef0c7	0.43543074
57	0xbcdabcaa	-0.02670129
58	0x3e22dbd9	0.15904178
59	0xbf8e03d1	-1.1094915
60	0x3f342853	0.7037403
61	0xbf419ad1	-0.75626856
62	0x3ed42c41	0.41440013
63	0xbe6be4ee	-0.23036548
64	0xbe69c020	-0.22827196
65	0xbee7bd7a	-0.45261747
66	0x3dc7cf74	0.097563654
67	0x3e8dde09	0.27708462
68	0xbe25e7fa	-0.16201773
69	0xbc4f6de9	-0.012660482
70	0x3fd9c03c	1.701179
71	0x3df81e7e	0.12115191
72	0xbd10f990	-0.03539425
73	0xbf0d0e4d	-0.55099946
74	0x3f388474	0.7207711
75	0xbf908ed0	-1.1293583
76	0xbccff8fe	-0.025387283
77	0x3d3697e6	0.044578455
78	0x3f11286c	0.56702304
79	0x3f81fc3d	1.0155102
80	0x3f2857d3	0.6575901
81	0xbf5af353	-0.85527533
82	0x3ec5d154	0.38636267
83	0xbefa7933	-0.48920593
84	0x3f34a574	0.7056496
85	0x3e856167	0.26050875
86	0x3ee71579	0.4513357
87	0xbf7ac99c	-0.9796388
88	0xbf4be6a8	-0.7964883
89	0x3ef01d99	0.4689758
90	0x3d80e435	0.06293527
91	0x3d6b2701	0.057410244
92	0x3f216c4c	0.6305587
93	0xbf0e6b73	-0.55632704
94	0x3dad2ff2	0.084564105
95	0xbe4916c6	-0.19637594
96	0x3f680da9	0.90645844
97	0xbfbb3944	-1.4626851
98	0xbfd0f425	-1.6324507
99	0xbf5f7559	-0.87288433
100	0x3ffc1008	1.9692392
101	0x3f09f2e5	0.5388625
102	0x3f8ed14e	1.1157625
103	0x3faccd18	1.350009
104	0xbec37843	-0.3817769
105	0x3e2dd394	0.16975242
106	0x3d93e7a4	0.07221916
107	0x3f6106dd	0.879011
108	0xbdb89e8c	-0.090146154
109	0x3f299d04	0.6625521
110	0xbe41b930	-0.189183
111	0x3db065c8	0.08613163
112	0x3db966f3	0.09052839
113	0xbe984bc2	-0.297453
114	0x3e911569	0.28336647
115	0xbfdf710c	-1.7456374
116	0xbf457881	-0.77137
117	0x3fdd8104	1.7304997
118	0xbead8ce7	-0.33896562
119	0x3ed4e2d6	0.41579312
120	0xbd5f063c	-0.054449305
121	0xbef03d08	-0.46921563
122	0xbf57cabb	-0.8429372
123	0xbe8edbca	-0.2790206
124	0xbc308921	-0.010774882
125	0xbf5223f0	-0.82086086
126	0xbe9458ba	-0.28973943
127	0x3d8d54c0	0.069009304
128	0xbff2d797	-1.8972043
129	0x3cc233d0	0.023706347
130	0x3f0319e0	0.5121136
131	0xbec12e5b	-0.3773068
132	0x3f49e0cc	0.7885864
133	0xbe665a78	-0.22495449
134	0xbe5df4f5	-0.21675475
135	0xbf1953b1	-0.5989333
136	0x3e574cbd	0.21025367
137	0x3f076328	0.52885675
138	0xbf7a5a23	-0.9779379
139	0x3f80be3f	1.0058059
140	0x3f19e7c8	0.60119295
141	0xbfa669c1	-1.3001024
142	0xbe67cc26	-0.2263647
143	0x3ea44f28	0.3209164
144	0xbf3308c1	-0.6993523
145	0xbf45f7ec	-0.77331424
146	0xbee44b8f	-0.44588897
147	0xbf93f0f4	-1.1557908
148	0x3f03c762	0.5147611
149	0x3d9953fd	0.074867226
150	0x3f8a4dc2	1.080498
151	0xbf168d71	-0.5880957
152	0xbe11ad2c	-0.14226216
153	0x3cb882ee	0.02252337
154	0x400ee315	2.23261
155	0xbf4a4c51	-0.790227
156	0xbd459ea5	-0.048247
157	0xbd33ac04	-0.04386522
158	0x3e964b02	0.293541
159	0x3fbf1967	1.4929627
160	0x3d79caf6	0.060984574
161	0xbdbc1c56	-0.09185092
162	0x3fb52f40	1.4155045
163	0xbf0d9147	-0.552998
164	0x3e8e5a1c	0.27803123
165	0xbde6277e	-0.11238001
166	0x3de61658	0.112347305
167	0xbefa1b2f	-0.48848864
168	0xbfb08d05	-1.3793036
169	0x3d21662f	0.03940409
170	0x3e7968a0	0.24356318
171	0xbd072f79	-0.033004258
172	0xbd5a3492	-0.05327279
173	0x3d9d80e6	0.07690601
174	0x3e3992bd	0.18122382
175	0x3f8e4883	1.1115879
176	0xbe63a8ed	-0.22232409
177	0xbfa3a4e0	-1.2784691
178	0x3bace261	0.00527601
179	0x3e25afac	0.16180295
180	0xbd519b97	-0.051173773
181	0xbebcdb39	-0.36886004
182	0xbdcc005c	-0.09961006
183	0xbf56b9b1	-0.8387709
184	0x3ea75dd5	0.32688776
185	0xbd2b22a1	-0.04178107
186	0xbeadb9ad	-0.33930722
187	0x3e6c4186	0.2307187
188	0xbf48903d	-0.7834509
189	0xbf76ca06	-0.96402013
190	0xbea08cf2	-0.31357533
191	0x3ca54dae	0.020178642
192	0x3ee4e8ee	0.4470896
193	0x3d955fd2	0.07293667
194	0x3f1c0e66	0.6095947
195	0x3f1c072b	0.6094844
196	0xbf2d2a4f	-0.6764268
197	0x3ee6e6a0	0.45097828
198	0xbec1c60f	-0.3784642
199	0xbf5ac14a	-0.85451186
200	0xbf1dfef0	-0.6171713
201	0xbf6aeaa8	-0.9176431
202	0xbd444f0f	-0.04792696
203	0xbe8919ae	-0.26777405
204	0x3ee076c7	0.4384062
205	0x3f3c8763	0.73644084
206	0x3f2e8b24	0.6818106
207	0x3ef20596	0.47269887
208	0x3f934755	1.1506144
209	0x3d7c1272	0.06154103
210	0xc00d4e79	-2.2079146
211	0x3e9f697e	0.31135172
212	0xbf13ae5f	-0.57687944
213	0xbf38aa31	-0.7213469
214	0xbe7e0649	-0.24807085
215	0x3f733dd3	0.9501621
216	0x3e7aa1d0	0.24475789
217	0x3e8efda0	0.27927876
218	0xbdbc2cd9	-0.091882415
219	0xbf71d1a0	-0.9446049
220	0xbf58f2e8	-0.84745646
221	0xbecf4e12	-0.4048925
222	0x3f96f297	1.1792783
223	0x3fa3781b	1.2771028
224	0x3faeae95	1.3647028
225	0xbfd751f0	-1.682188
226	0xbf80c6bf	-1.0060652
227	0xbf3645b5	-0.71200114
228	0xbe9b429e	-0.30324262
229	0xbea9b1ac	-0.33143365
230	0xbf4b6288	-0.7944722
231	0x3f831d80	1.0243378
232	0xbf09acb3	-0.53779143
233	0x3e9f9f9e	0.31176466
234	0xbf57de73	-0.84323806
235	0xbf86026d	-1.046949
236	0xbec38ad4	-0.38191855
237	0xbdc502d7	-0.09619682
238	0xbf15a8d2	-0.58460724
239	0xbea36bcb	-0.31918177
240	0xbf20f7c9	-0.6287809
241	0xbef4a222	-0.47779948
242	0x3f5bc1db	0.85842675
243	0xbfcade69	-1.5849124
244	0xbf1b1ea5	-0.60593635
245	0xbfb313c7	-1.399041
246	0x3c894fe9	0.016761737
247	0xbf8358e3	-1.0261501
248	0x3f09bc80	0.53803253
249	0xbf542f5d	-0.8288477
250	0xbf7c7200	-0.9861145
251	0x3d12df2b	0.03585736
252	0x3f7fa9ab	0.9986827
253	0xbf24ee69	-0.64426285
254	0x3f7843c0	0.9697838
255	0xbe025c80	-0.12730598

shared_layers.0.bias f4 [128]
0	0xbd578f73	-0.05262704
1	0x3d6fda10	0.05855757
2	0x3be70a33	0.0070507764
3	0x3de5656a	0.11200984
4	0x3c231c6f	0.00995551
5	0xbc173e5e	-0.009231178
6	0xbd1254cb	-0.035725396
7	0xbcaea0c4	-0.021316893
8	0x3d934f2d	0.07192836
9	0x3c95ecfd	0.018301481
10	0x3d10a984	0.035317913
11	0x3c7f9e7d	0.015601751
12	0x3d9a6c54	0.07540193
13	0xbd5a57d4	-0.053306416
14	0xbd04ef68	-0.032454878
15	0xbc845706	-0.016154777
16	0xbd1580e6	-0.03649988
17	0xbd1cbc1d	-0.038265336
18	0xbdb2d682	-0.0873232
19	0xbd333278	-0.043749303
20	0xbcb78a35	-0.02240477
21	0xbcacdab4	-0.02110038
22	0xbda49227	-0.08035689
23	0x3c6b35cf	0.014356091
24	0xbd9026f8	-0.07038683
25	0xbc810a8a	-0.015752096
26	0xbd988067	-0.07446366
27	0xbe1247dd	-0.14285226
28	0xbd09d41c	-0.03364955
29	0xbdd15ee9	-0.10223181
30	0xbc1b51c9	-0.009479948
31	0xbd365a8e	-0.044519953
32	0x3d7e87dd	0.062141288
33	0x3d97f92a	0.07420571
34	0xbdbc8480	-0.0920496
35	0xbbcf27a8	-0.006321866
36	0xbd232e50	-0.03983909
37	0xbc8ee982	-0.01744533
38	0xbb2319f3	-0.0024887293
39	0x3a59d528	0.0008309656
40	0xbd8fa205	-0.07013325
41	0x3d8dc381	0.06922055
42	0x3dcc491f	0.09974884
43	0xbcb77dd1	-0.022398861
44	0xbc9d89f9	-0.01923083
45	0xbd297316	-0.04136952
46	0x3d84240a	0.064521864
47	0x3cdfe28d	0.027329708
48	0xbd4eae80	-0.050459385
49	0x3cdd1e3e	0.02699196
50	0xbd9795f9	-0.07401652
51	0xbd95b1fb	-0.07309338
52	0xbc9ab960	-0.018887222
53	0x3e359920	0.17734194
54	0x3da2a960	0.07942462
55	0x3e523b47	0.20530425
56	0xbd0fa1a2	-0.035066254
57	0x3e263bbd	0.16233726
58	0x3d825de5	0.06365565
59	0x3dd06641	0.101757534
60	0xbcedcc7b	-0.029028168
61	0xbda44cf1	-0.08022488
62	0x3d5283ff	0.051395413
63	0xbc3c47b7	-0.0114917075
64	0xbcbcc3dd	-0.023042614
65	0xbcefac7a	-0.029257048
66	0xbd257876	-0.040398084
67	0xbbd6552d	-0.0065409155
68	0xbb5b95a6	-0.0033505945
69	0x3d88adcd	0.06673775
70	0x3d85e5cf	0.06537973
71	0xbd7adbbf	-0.061244722
72	0xbd596d52	-0.05308277
73	0xbd644274	-0.055727437
74	0x3da121fe	0.078678116
75	0x3c299fc1	0.01035303
76	0xbd5793ef	-0.052631315
77	0xba467872	-0.00075710483
78	0xbc7756de	-0.015096394
79	0x3e3ebd58	0.18626916
80	0xbc0f0803	-0.0087299375
81	0xbd85d142	-0.065340534
82	0xbcb9c5f4	-0.0226774
83	0x3e23d366	0.15998611
84	0xbda073ff	-0.078346245
85	0xbd1cd5e2	-0.038289912
86	0x3dec3813	0.11534133
87	0x3da8ba36	0.08238642
88	0x3d7e8dbd	0.06214689
89	0xbda45b7d	-0.080252625
90	0x3daa4a32	0.08314933
91	0xbd5ce0f7	-0.05392548
92	0xbd48da14	-0.0490361
93	0x3e1fbbcc	0.15598983
94	0x3aebfc32	0.0018004237
95	0x3d54ea5e	0.051981322
96	0xbd2380e6	-0.03991785
97	0x3e3918d1	0.18075873
98	0x3ddf9b1c	0.10918257
99	0xbb5d3c6f	-0.0033757945
100	0x3d7ec843	0.062202703
101	0x3d709d23	0.058743607
102	0xbb20f696	-0.002456104
103	0x3d98c288	0.07458979
104	0x3d85c31b	0.06531354
105	0x3dc79a34	0.09746209
106	0xbd03d2a1	-0.032183293
107	0xbd0e6ad8	-0.034769863
108	0xbd215260	-0.0393852
109	0x3c0d8c4d	0.008639407
110	0xbd51c19e	-0.05121004
111	0x3dbbeecc	0.09176406
112	0x3d998108	0.07495314
113	0xbc53a417	-0.01291754
114	0x3cd93564	0.026514716
115	0xbdc00fa9	-0.09377987
116	0xbce2bd2f	-0.0276781
117	0xbcbc57d7	-0.022991104
118	0x3cbe9faf	0.023269502
119	0xbd98bcd4	-0.07457891
120	0xbd3aeb8c	-0.04563479
121	0x3d662875	0.056190927
122	0x3cda4fbf	0.026649354
123	0xbd5ac87d	-0.053413857
124	0x3d0ef5de	0.034902446
125	0x3c93eab2	0.018056247
126	0xbbaf2f8c	-0.005346244
127	0x3df8078c	0.121108145

shared_layers.1.weight f4 [128]
0	0x3f79eb86	0.97625005
1	0x3f8da8f4	1.1067185
2	0x3f9c1de4	1.2196622
3	0x3f876253	1.0576881
4	0x3f7bfce4	0.98432755
5	0x3f8ab9e3	1.0837978
6	0x3f5dd6a2	0.8665563
7	0x3f70f0d1	0.94117457
8	0x3f7e5dee	0.99362075
9	0x3f726e53	0.9469959
10	0x3f89a5a9	1.075368
11	0x3f816055	1.0107523
12	0x3f7a7a28	0.97842646
13	0x3f75f83c	0.960819
14	0x3f815a6c	1.010572
15	0x3f712b8a	0.9420706
16	0x3f7d446e	0.9893254
17	0x3f870453	1.0548195
18	0x3f899439	1.0748359
19	0x3f8ee64c	1.1164031
20	0x3f6b54c6	0.9192623
21	0x3f7d230e	0.98881614
22	0x3f819ddd	1.0126301
23	0x3f784519	0.96980435
24	0x3f75cccf	0.9601564
25	0x3f7fde54	0.9994862
26	0x3f8b5430	1.0885067
27	0x3f76c1f4	0.963897
28	0x3f87617c	1.0576625
29	0x3f69807e	0.9121169
30	0x3f8765a3	1.0577892
31	0x3f73c214	0.95218015
32	0x3f7e8467	0.9942078
33	0x3f7f9b24	0.998461
34	0x3f81f9e6	1.0154388
35	0x3f6627a1	0.8990422
36	0x3f897cbe	1.0741193
37	0x3f7fc289	0.9990621
38	0x3f838c8c	1.0277267
39	0x3f9da801	1.2316896
40	0x3f8429ed	1.0325295
41	0x3f809d67	1.0048035
42	0x3f6ca62b	0.9244105
43	0x3f90f818	1.1325712
44	0x3f7bb52a	0.9832331
45	0x3f84d9f4	1.0379014
46	0x3f82f6d5	1.0231577
47	0x3f82051b	1.0157808
48	0x3f7bef59	0.9841209
49	0x3f8369e3	1.0266689
50	0x3f84b3b3	1.036734
51	0x3f7b621f	0.98196596
52	0x3f856f89	1.0424663
53	0x3f90bffa	1.1308587
54	0x3f8450d8	1.0337172
55	0x3f85fa1b	1.0466951
56	0x3f6eaffd	0.93237287
57	0x3f85bea7	1.0448807
58	0x3f912397	1.1338986
59	0x3f772345	0.9653819
60	0x3f9080fa	1.128936
61	0x3f813f60	1.0097466
62	0x3f75a58d	0.95955735
63	0x3f658a9b	0.8966462
64	0x3f838e8a	1.0277874
65	0x3f8193ad	1.0123192
66	0x3f74b91a	0.9559494
67	0x3f770ce8	0.9650407
68	0x3f767725	0.9627555
69	0x3f7e2c38	0.9928622
70	0x3f766a9f	0.9625644
71	0x3f78140c	0.9690559
72	0x3f8011cc	1.0005431
73	0x3f817cc0	1.0116196
74	0x3f821ce7	1.016507
75	0x3f8851fa	1.0650017
76	0x3f8c2c29	1.0950977
77	0x3f871809	1.055421
78	0x3f973b90	1.1815052
79	0x3f838662	1.0275385
80	0x3f8e2545	1.1105124
81	0x3f77d159	0.96803814
82	0x3f8adeda	1.0849259
83	0x3f65b392	0.8972713
84	0x3f7b989d	0.98279744
85	0x3f9f5902	1.2449038
86	0x3f814ca6	1.0101516
87	0x3f89bdb1	1.0761014
88	0x3f7d6e79	0.9899669
89	0x3f7bf629	0.98422486
90	0x3f8486f1	1.0353681
91	0x3f814fc6	1.010247
92	0x3f80a54a	1.0050442
93	0x3f8e8953	1.1135658
94	0x3f5f48cb	0.8722045
95	0x3f74e41e	0.9566058
96	0x3f8b92ca	1.0904171
97	0x3f805023	1.0024456
98	0x3f86f8fd	1.0544735
99	0x3f885513	1.0650963
100	0x3f796db1	0.97433
101	0x3f6a0553	0.91414374
102	0x3f7c3338	0.98515654
103	0x3f7d98dd	0.99061376
104	0x3f7f9aa4	0.9984534
105	0x3f87c609	1.060731
106	0x3f768b38	0.9630618
107	0x3f870f18	1.0551481
108	0x3f7dd709	0.9915624
109	0x3f6dab36	0.9283937
110	0x3f84bcc2	1.0370104
111	0x3f7487d8	0.9551978
112	0x3f7f5968	0.997458
113	0x3f6eef7c	0.93334174
114	0x3f72b640	0.9480934
115	0x3f7d7273	0.9900276
116	0x3f7f4be9	0.99725205
117	0x3f8a02b8	1.078208
118	0x3f6af616	0.9178175
119	0x3f7e0833	0.9923126
120	0x3f76f6c6	0.96470296
121	0x3f7e4c71	0.9933539
122	0x3f786806	0.9703373
123	0x3f841ff6	1.0322254
124	0x3f845fd1	1.0341741
125	0x3f781331	0.96904284
126	0x3f701fe8	0.93798685
127	0x3f8351e1	1.0259362

shared_layers.1.bias f4 [128]
0	0xbc9e046e	-0.019289222
1	0x3c298b62	0.010348173
2	0x3d0c419e	0.034242265
3	0x3c319aa9	0.0108400965
4	0x3d81e858	0.06343144
5	0x3d593808	0.05303195
6	0xbdd3dc16	-0.103447124
7	0xbd63e841	-0.055641416
8	0xbc94995b	-0.018139532
9	0xbd4f03df	-0.0505408
10	0xba358026	-0.00069236977
11	0xbc75adc3	-0.014995041
12	0xbc3b658c	-0.011437785
13	0xbd600553	-0.054692578
14	0xbcd9ce7f	-0.026587723
15	0xbd15eaec	-0.036600992
16	0x3d0a2dcd	0.033735085
17	0x3bbdf7ca	0.005797361
18	0xbba9072e	-0.0051583266
19	0x3ca55f88	0.020187154
20	0xbd5b5726	-0.053549908
21	0xbd1dfc2c	-0.038570568
22	0x3a707913	0.0009173315
23	0xbcb3dec9	-0.021956818
24	0xbd32b015	-0.043624956
25	0xbcb1f595	-0.021723548
26	0x3c9dc4bc	0.01925885
27	0xbd4f1993	-0.0505615
28	0x3ca0a5ae	0.019610252
29	0xbda94d17	-0.08266657
30	0x3d0dc2b6	0.03460952
31	0xbd2adc32	-0.0417139
32	0x3c4fffec	0.012695294
33	0xbcbb0a6d	-0.02283212
34	0x3b6cd3ad	0.003613691
35	0xbdae1a9f	-0.08501171
36	0x3ce2f141	0.02770293
37	0xbd25a7ef	-0.040443357
38	0xbb5d3442	-0.0033753072
39	0x3d53c270	0.051699102
40	0x3c2abf0f	0.0104215285
41	0xbc2d8c41	-0.010592521
42	0x3de6c578	0.11268133
43	0x3d17e760	0.03708589
44	0xbcb736d8	-0.022365019
45	0x3d079eff	0.033110615
46	0xbcbf148d	-0.023325229
47	0xbb93fa5c	-0.004515929
48	0xbd39333b	-0.045214873
49	0xbbf69058	-0.0075245313
50	0x3c416816	0.011804601
51	0xbd049891	-0.03237206
52	0xbc24c21b	-0.010056044
53	0x3d431d8e	0.047635607
54	0x3a6e7cf7	0.00090976007
55	0x3dc6e2ff	0.09711265
56	0xbd4d339c	-0.050098047
57	0x3ca790c4	0.020454772
58	0x3cb36063	0.021896547
59	0x3d5e800a	0.054321326
60	0x3d718e1e	0.058973424
61	0xbc97d4f0	-0.018534154
62	0xbd00b782	-0.031425007
63	0xbd815662	-0.06315304
64	0xbc5db75e	-0.013532488
65	0x3cee8bdc	0.029119425
66	0xbcebb97c	-0.02877497
67	0xbd898ecf	-0.06716692
68	0x3d67369f	0.056448575
69	0xbca346a4	-0.019931145
70	0x3cea9619	0.028636025
71	0x3d134f4f	0.035964306
72	0xbb3c39d8	-0.0028721
73	0xbca65607	-0.020304693
74	0x3b9c20c5	0.0047646486
75	0x3ce0270f	0.027362375
76	0x3cde49f4	0.027134873
77	0xbceabff6	-0.028655987
78	0x3cfb9d27	0.030714585
79	0x3d9c1ac8	0.076222956
80	0x3d579675	0.05263372
81	0xbc829283	-0.015939003
82	0x3d397d8c	0.045285746
83	0x3da2a1b5	0.079409994
84	0xbd0a99da	-0.03383813
85	0x3d7ee2ff	0.0622282
86	0x3c749233	0.014927435
87	0x3d244743	0.040107023
88	0xbc9c08c5	-0.01904715
89	0xbce409ec	-0.027836762
90	0x3d62350d	0.055226374
91	0x3c86133b	0.016366592
92	0xbb77b983	-0.0037799783
93	0x3d417008	0.047225982
94	0xbdadd37d	-0.08487604
95	0xbd235c9c	-0.03988324
96	0x3c2a61a1	0.010399253
97	0x3d35b162	0.04435862
98	0x3ca83ef5	0.020537833
99	0xbbce68a9	-0.0062990976
100	0xbd1cda8e	-0.038294367
101	0xbbe688f1	-0.0070353677
102	0xbd01386f	-0.03154796
103	0xbca5d830	-0.020244688
104	0xbb271db5	-0.0025499885
105	0x3ca4c836	0.020115
106	0xbd7ad38b	-0.0612369
107	0xbcdeb336	-0.027185064
108	0xbd1e68bf	-0.038674112
109	0xbd55f6e8	-0.05223742
110	0x3d0bac70	0.034099996
111	0x3d950b06	0.07277493
112	0xbc282515	-0.010262747
113	0xbd9ec248	-0.077519
114	0xbd5e0b61	-0.05421007
115	0xbd021542	-0.031758554
116	0x3d4a48a7	0.049385693
117	0x3cb2d209	0.021828668
118	0x3c80eabb	0.015736928
119	0xbcbc73c7	-0.023004426
120	0xbd901568	-0.07035333
121	0xbced067e	-0.02893376
122	0x3d58347d	0.05278443
123	0x3a857c4b	0.0010184137
124	0xbc8aa283	-0.016923195
125	0xbd3c87f8	-0.046028107
126	0xbd84bbe5	-0.064811505
127	0xbcf536e0	-0.029933393

shared_layers.3.weight f4 [128, 128]
0	0x3dc281eb	0.09497436
1	0x3dcd5b9e	0.1002724
2	0x3e33b9d1	0.17551352
3	0x3d482c14	0.04887016
4	0xbdacfb64	-0.084463865
5	0x3e1ba7b6	0.15200695
6	0xbc075c95	-0.008261819
7	0x3e582d94	0.21111137
8	0x3e811027	0.25207636
9	0xbe119cd5	-0.14219983
10	0x3e4366cf	0.19082187
11	0x3db2d1e2	0.08731438
12	0xbdc2e3dc	-0.09516117
13	0xbc995c75	-0.018720845
14	0x3e26410c	0.16235751
15	0xbddb0feb	-0.106963955
16	0xbea265dc	-0.31718338
17	0x3d9ce990	0.07661736
18	0xbdbad2e6	-0.09122257
19	0xbdfa973c	-0.12235877
20	0x3cf58e34	0.029975034
21	0x3d3dee66	0.046369933
22	0x3dcb6d91	0.099330075
23	0x3e3f80a9	0.18701424
24	0xbe58f3df	-0.2118678
25	0x3e13ff7d	0.1445293
26	0xbe259aee	-0.16172382
27	0x3d21caa0	0.03949988
28	0xbdfeede2	-0.12447716
29	0xbdbf5951	-0.09343208
30	0xbe86c3c5	-0.26321235
31	0xbdb7c79d	-0.0897362
32	0x3d0f229f	0.034945127
33	0xbdc71472	-0.097206965
34	0x3d8523bd	0.06500957
35	0x3e011edf	0.12609433
36	0xbe089e69	-0.13341679
37	0x3c00527a	0.007832164
38	0x3d949417	0.072548084
39	0x3d4f5a34	0.050623134
40	0xbea90b2d	-0.3301634
41	0x3e5d48f4	0.2160986
42	0xbd3675ac	-0.044545814
43	0xbdf46aec	-0.11934456
44	0xbc8ca49e	-0.01716834
45	0xbdd3193a	-0.10307546
46	0x3dbc6c09	0.092002936
47	0xbdf56bc9	-0.11983449
48	0xbdcd096f	-0.10011565
49	0xbe585019	-0.21124305
50	0x3de5fc31	0.11229742
51	0xbdcffc99	-0.10155601
52	0xbc936045	-0.01799024
53	0x3d7f65fc	0.06235312
54	0x3e33e686	0.17568406
55	0x3e23fe6d	0.16015024
56	0x3cd71a6f	0.026257722
57	0x3d2603fa	0.040531136
58	0xbe11e176	-0.14246163
59	0x3e1ea94b	0.15494268
60	0xbe8fc45f	-0.28079507
61	0xbd9f29c0	-0.07771635
62	0xbd40a72c	-0.047034428
63	0xbb284d38	-0.0025680792
64	0x3e103e4f	0.14086269
65	0x3db31317	0.087438755
66	0x3d36bbc5	0.044612665
67	0xbe02b2fd	-0.12763591
68	0x3defbaf6	0.11705582
69	0x3dd4aad4	0.103841454
70	0xbd67aca4	-0.056561127
71	0xbd2652ae	-0.040606193
72	0x3bc85715	0.0061138966
73	0xbe2f538a	-0.17121711
74	0xbe12e4d7	-0.14345108
75	0x3e40c09f	0.18823479
76	0xbe57581b	-0.21029703
77	0xbb8938e6	-0.004187691
78	0x3afdcf08	0.0019364068
79	0xbb97c202	-0.004631282
80	0x3c08432c	0.008316796
81	0xbe64def4	-0.22350675
82	0xbe4a5652	-0.19759491
83	0xbdc44623	-0.0958369
84	0xbe43cb4c	-0.1912052
85	0xbe62e194	-0.22156364
86	0x3df4c6c4	0.11951974
87	0xbd66a9e2	-0.056314357
88	0x3cbe3cd9	0.023222374
89	0xbc92549b	-0.017862609
90	0x3e0bb695	0.13643868
91	0xbe43ab29	-0.19108261
92	0x3d4c4eb4	0.049879745
93	0x3e2cc1f9	0.1687087
94	0xbdcb0486	-0.09912972
95	0x3d85a585	0.06525711
96	0xbdbacebd	-0.091214634
97	0x3e740e48	0.23833573
98	0x3e215cb7	0.15758024
99	0x3e830f5b	0.25597653
100	0x3eac01fe	0.3359527
101	0x3d3eccd4	0.046582058
102	0xbda926ce	-0.082593545
103	0x3e5df99a	0.21677247
104	0x3c172c21	0.00922683
105	0x3cb785fa	0.022402752
106	0xbe09e9c3	-0.1346808
107	0xbe671bde	-0.22569224
108	0x3c951352	0.01819769
109	0xbd26bd66	-0.04070797
110	0xbe64bae2	-0.22336915
111	0xbe5c2b6f	-0.21500944
112	0x3c248009	0.010040292
113	0x3e0254d2	0.12727669
114	0x3e32652d	0.17421408
115	0x3a37c952	0.0007010895
116	0x3d934544	0.07190946
117	0xbe45a410	-0.19300866
118	0xbd41d2d0	-0.047320187
119	0x3dfcc087	0.12341409
120	0x3c288c2f	0.010287329
121	0x3d13934c	0.036029145
122	0xbd3f1943	-0.04665495
123	0x3c93786a	0.018001754
124	0xbd9217eb	-0.07133468
125	0xbe07021d	-0.131844
126	0x3e47640c	0.19471759
127	0x3d12e82c	0.035865948
128	0xbeabc08b	-0.33545336
129	0x3d908703	0.070570014
130	0x3d735a41	0.059412245
131	0x3cae14a7	0.021250082
132	0x3d4b7e69	0.0496811
133	0xbd4712af	-0.048601802
134	0x3d6b5a7e	0.057459347
135	0x3d84d62f	0.06486165
136	0xbda350c2	-0.07974388
137	0xbe16b376	-0.14716896
138	0x3db2b906	0.08726697
139	0xbd73b515	-0.059498865
140	0xbe2e9edd	-0.17052789
141	0x3d41b581	0.047292236
142	0xbc5406d1	-0.012941078
143	0x3e16f356	0.14741263
144	0xbd339f4d	-0.043853093
145	0xbe7b660a	-0.24550644
146	0x3d88bd63	0.06676748
147	0x3e31a964	0.17349774
148	0xbdcbbddf	-0.099483244
149	0xbe020390	-0.12696671
150	0x3df2002c	0.11816439
151	0xbd86f5ce	-0.06589852
152	0x3d879aef	0.06621348
153	0x3d2e94f6	0.04262253
154	0x3e44dd34	0.19225007
155	0x3e1dc04e	0.1540539
156	0xbda1ed04	-0.07906535
157	0x3e302ded	0.1720502
158	0xbd1cc6b3	-0.03827543
159	0x3dc206e2	0.09473969
160	0x3e5ac5c8	0.2136451
161	0x3decc977	0.11561864
162	0x3d441c6b	0.047878664
163	0xbda3eae3	-0.080037855
164	0xbe26dfbb	-0.16296284
165	0x3e1b460c	0.1516344
166	0x3da56eb5	0.08077756
167	0xbd1fb81f	-0.03899395
168	0x3ccc158f	0.024912624
169	0x3d076174	0.033051923
170	0xbcb1763c	-0.021662824
171	0x3e32b124	0.17450386
172	0x3e82d45e	0.25552648
173	0x3df9851b	0.12183591
174	0xbe60b87f	-0.2194538
175	0x3e219a22	0.15781453
176	0xbbd39480	-0.0064569116
177	0x3e82892e	0.25495285
178	0xbd80b3f1	-0.06284321
179	0xbe2dcdb7	-0.16973005
180	0x3e4e74ef	0.20161794
181	0x3d756cb4	0.05991812
182	0xbd5f350f	-0.05449396
183	0xbda66cce	-0.081262216
184	0x3da184e2	0.078866735
185	0xbdef9841	-0.11698962
186	0x3d665630	0.05623454
187	0x3e14983c	0.14511198
188	0xbe33835a	-0.17530575
189	0xbe8beb4e	-0.2732796
190	0x3e2bcc7e	0.16777226
191	0xbe08687c	-0.13321108
192	0x3def6d08	0.11690718
193	0xbcb4a041	-0.022049071
194	0x3d2fbf63	0.04290713
195	0x3e1753a6	0.14778003
196	0x3d954ef2	0.07290448
197	0xbe4ad57f	-0.19808005
198	0xbe110402	-0.14161685
199	0x3d12cdac	0.035840675
200	0x3e81f3a0	0.25381184
201	0x3d78e070	0.060760915
202	0x3e16d7c0	0.1473074
203	0xbe0270b3	-0.12738304
204	0xbd80bbd4	-0.06285825
205	0xbe4ae88c	-0.19815272
206	0x3e2178fc	0.15768808
207	0x3e130878	0.143587
208	0x3d2044ab	0.039127987
209	0xbddc4544	-0.10755399
210	0xbd526eb1	-0.051375095
211	0xbd8d2863	-0.06892469
212	0x3d466a79	0.048441384
213	0xbbde12e5	-0.0067771547
214	0x3e1405d9	0.14455356
215	0x3e35217d	0.17688556
216	0xbda3494a	-0.07972963
217	0xbe80c179	-0.25147608
218	0x3c7f493a	0.015581423
219	0x3c536c12	0.012904184
220	0xbd484acd	-0.04889946
221	0xbe5bc265	-0.21460874
222	0x3cc9263f	0.02455437
223	0x3e2c7de2	0.16844895
224	0x3d8b2870	0.06794822
225	0x3ab8a6fe	0.0014087853
226	0x3e0808e7	0.13284646
227	0xbe33cfdf	-0.17559765
228	0xbd9d727a	-0.0768785
229	0xbd6bc864	-0.057564154
230	0xbc2f6c94	-0.010707039
231	0x3c95d835	0.018291572
232	0x3c6a3f8d	0.014297378
233	0xbcfa3617	-0.03054337
234	0x3e051963	0.12997966
235	0xbd3805a9	-0.044927273
236	0x3d8f1703	0.06986811
237	0xbd56ce4d	-0.052442838
238	0xbe28b3ea	-0.16474882
239	0xbd0984c5	-0.033573885
240	0xbd27d7a4	-0.040977135
241	0xbd27e736	-0.040991984
242	0x3e552966	0.20816574
243	0x3dc89ede	0.097959265
244	0xbdbac20d	-0.091190435
245	0xbe29a0dc	-0.16565269
246	0xbdb95afe	-0.090505585
247	0xbdb809b4	-0.08986226
248	0xbbce1e61	-0.0062902425
249	0xbd6d387a	-0.05791519
250	0xbe00e0da	-0.12585774
251	0xbc009559	-0.007848107
252	0x3d836aca	0.06416853
253	0x3e433ee9	0.19066967
254	0x3e08aeac	0.13347882
255	0xbc897ee0	-0.016784132

shared_layers.3.bias f4 [128]
0	0xbbe0e0a9	-0.006862719
1	0x3b8e5bf9	0.00434446
2	0xbc423cef	-0.011855348
3	0x3cd5dfdb	0.02610772
4	0x3cf90f21	0.030402722
5	0x3c3b85c9	0.011445471
6	0xbba172f1	-0.004927032
7	0x3c98e046	0.01866163
8	0x391398a0	0.0001407587
9	0x3d3be6c7	0.045874383
10	0x39e5c617	0.00043825872
11	0x3c83276e	0.016010012
12	0x3c589269	0.013218501
13	0xbbc56aef	-0.0060247104
14	0x3c908843	0.0176431
15	0x3c8977ab	0.016780695
16	0x3c832320	0.01600796
17	0x3cd7b646	0.026332032
18	0x3ce2ad94	0.02767066
19	0x3c8a055d	0.01684826
20	0x3d42d1b4	0.04756327
21	0x3c9752b1	0.018472048
22	0x3c98deea	0.018660981
23	0xbb0ab2eb	-0.0021163772
24	0x3c233e5b	0.009963597
25	0xbb82275a	-0.003971976
26	0xbc884b6d	-0.016637528
27	0x3a1b05bb	0.00059136347
28	0x3c399616	0.011327287
29	0x3b034d49	0.002003508
30	0x3c42ff59	0.0119017
31	0x3ca620f6	0.020279389
32	0x3d281131	0.04103202
33	0x3bdd53cc	0.006754374
34	0x3c0a935a	0.008457983
35	0x3ce11d2f	0.027479736
36	0x3c961b2a	0.0183235
37	0xbc15c597	-0.009141347
38	0x3ad79c66	0.0016449809
39	0x3bf6fa4b	0.0075371615
40	0x3c7e0f54	0.015506584
41	0xbc35c6bf	-0.011094748
42	0x3b828e36	0.003984238
43	0x3c4d70d1	0.012539105
44	0x3cf9868e	0.030459668
45	0x3c734a74	0.014849294
46	0x3c2f897a	0.010713929
47	0x3a1beb88	0.00059478777
48	0xbd298eef	-0.041396078
49	0x3c721192	0.014774697
50	0x3d27f149	0.04100159
51	0x3a918410	0.001110198
52	0x3c388ba4	0.011263762
53	0x3be547bb	0.0069970763
54	0xbc819523	-0.015818184
55	0x3ce97fb6	0.02850328
56	0x3cf1e2f6	0.029527169
57	0xbbb5f8f5	-0.0055533596
58	0xbc8610ae	-0.016365375
59	0xbb11d5cd	-0.002225268
60	0x3bda3e54	0.006660262
61	0x3be9810e	0.00712598
62	0x3cbc6d0b	0.023001214
63	0x3c0a79b6	0.00845187
64	0x3cc21984	0.023693807
65	0x3c354b8e	0.011065377
66	0x3ca28294	0.019837655
67	0x3c7ad161	0.015308709
68	0xb9c7af54	-0.00038086867
69	0x3bb183b2	0.0054173106
70	0xbc83340f	-0.016016034
71	0x3bb267b8	0.005444493
72	0x3c48d58e	0.012257947
73	0xbd103018	-0.035202116
74	0x3c9a9c21	0.018873276
75	0x3b0c459f	0.0021403802
76	0xba38f0c4	-0.000705492
77	0x3c14c2bb	0.0090796305
78	0x3d0466e0	0.03232467
79	0xba9e90f7	-0.0012097646
80	0x3c9cdfa2	0.019149605
81	0x3cb210a7	0.021736456
82	0xbc81873a	-0.015811551
83	0x3d352f7d	0.04423474
84	0x3cd43282	0.02590299
85	0xbcf2710e	-0.029594924
86	0x3b997e7a	0.0046842666
87	0x3bb039bf	0.0053779776
88	0x3c1e3b33	0.009657669
89	0x3cf4dba6	0.029889893
90	0x3c7c967d	0.015416739
91	0x3d19b30b	0.037524264
92	0x3c232b3a	0.0099590365
93	0x3c8d6cf2	0.017263863
94	0x3cdb3a36	0.026761156
95	0x3b26f8a2	0.0025477787
96	0x3bd4817b	0.006485162
97	0xbb87ff42	-0.004150302
98	0x3c4d2bae	0.012522621
99	0x3c4324d3	0.011910635
100	0xbc215e62	-0.009849163
101	0xbb8566c7	-0.00407109
102	0xbc32e740	-0.010919392
103	0xbc44c91c	-0.012010839
104	0x3c0126ab	0.007882754
105	0xbbc47540	-0.0059954226
106	0x3ce5b821	0.028041901
107	0x3c81586f	0.015789239
108	0xbcf1376a	-0.029445369
109	0xbacd7862	-0.0015676136
110	0xbc798632	-0.015229749
111	0x3ca83e56	0.020537537
112	0x3cef1548	0.029184952
113	0x3ab4aa69	0.0013783696
114	0x3ccff1d2	0.025383864
115	0x3c55aac7	0.013041205
116	0xbc77d50b	-0.015126477
117	0x3c028930	0.007967278
118	0x3ce0a603	0.02742291
119	0x3c0b3972	0.008497583
120	0xbc1e7148	-0.009670563
121	0x3c13d4c9	0.0090229
122	0x3caa2774	0.020770766
123	0x3cec5bf4	0.02885244
124	0xbc2b8286	-0.010468131
125	0x3b686677	0.0035461464
126	0xbc3faba8	-0.011698641
127	0xbcac9ec4	-0.0210718

shared_layers.4.weight f4 [128]
0	0x3f82f62f	1.0231379
1	0x3f763322	0.9617177
2	0x3f803244	1.001534
3	0x3f8d6c2e	1.1048639
4	0x3f8149ee	1.0100687
5	0x3f8488c5	1.0354239
6	0x3f81bd48	1.0135889
7	0x3f81826f	1.011793
8	0x3f89a673	1.0753921
9	0x3f8b2666	1.0871093
10	0x3f78aedf	0.9714183
11	0x3f7f6531	0.9976378
12	0x3f893118	1.0718107
13	0x3f7c811e	0.9863452
14	0x3f842776	1.0324543
15	0x3f94507b	1.1587061
16	0x3f8cc0db	1.0996355
17	0x3f8cd69b	1.1002992
18	0x3f86f497	1.0543393
19	0x3f87a6ba	1.0597756
20	0x3f8ea195	1.1143061
21	0x3f81f5ab	1.0153097
22	0x3f7ab19e	0.9792727
23	0x3f819122	1.0122416
24	0x3f7ddab0	0.99161816
25	0x3f892f92	1.0717642
26	0x3f657072	0.896247
27	0x3f80214f	1.0010165
28	0x3f7ed6c5	0.9954646
29	0x3f7b853d	0.9825018
30	0x3f7621fc	0.96145606
31	0x3f892f03	1.0717472
32	0x3f88c296	1.0684383
33	0x3f81dd71	1.0145704
34	0x3f8c26d2	1.0949347
35	0x3f81b3b4	1.0132966
36	0x3f8639ef	1.048643
37	0x3f737ae0	0.9510937
38	0x3f81b6d6	1.0133922
39	0x3f84519f	1.0337409
40	0x3f83be12	1.029238
41	0x3f79c408	0.97564745
42	0x3f8409d0	1.0315495
43	0x3f7df256	0.991979
44	0x3f8e22b7	1.1104344
45	0x3f83b094	1.0288262
46	0x3f8353cc	1.0259948
47	0x3f80c06b	1.0058721
48	0x3f744f55	0.9543355
49	0x3f8cc740	1.0998306
50	0x3f7ea5db	0.99471825
51	0x3f796fa5	0.9743598
52	0x3f828946	1.0198143
53	0x3f8494cc	1.0357909
54	0x3f791855	0.9730275
55	0x3f80fc81	1.0077058
56	0x3f87acc9	1.0599605
57	0x3f78dc47	0.97211117
58	0x3f7d17bf	0.9886436
59	0x3f80b8f6	1.0056446
60	0x3f8530f4	1.0405564
61	0x3f713867	0.9422669
62	0x3f806097	1.0029477
63	0x3f83a313	1.0284141
64	0x3f83779d	1.0270878
65	0x3f74fa10	0.95694065
66	0x3f84ffb7	1.0390538
67	0x3f765b25	0.96232826
68	0x3f7f0a33	0.9962494
69	0x3f880978	1.062789
70	0x3f794438	0.9736972
71	0x3f84f2f7	1.0386647
72	0x3f7460f6	0.9546045
73	0x3f73302f	0.949954
74	0x3f855f4b	1.0419706
75	0x3f806012	1.0029318
76	0x3f7d045f	0.98834795
77	0x3f874ac7	1.0569695
78	0x3f74b295	0.95584995
79	0x3f83bc0c	1.0291762
80	0x3f8ef2ab	1.1167806
81	0x3f81d54f	1.0143222
82	0x3f800fd3	1.0004829
83	0x3f7af254	0.98026013
84	0x3f87dd01	1.061432
85	0x3f735076	0.9504465
86	0x3f8cba1f	1.09943
87	0x3f906d6d	1.1283394
88	0x3f820813	1.0158714
89	0x3f82f318	1.0230436
90	0x3f6965cd	0.9117096
91	0x3f82b2de	1.0210836
92	0x3f8cff0c	1.1015334
93	0x3f85d875	1.0456682
94	0x3f7586c1	0.95908743
95	0x3f7d6709	0.98985344
96	0x3f8589db	1.0432695
97	0x3f878e4a	1.0590298
98	0x3f7fdfac	0.9995067
99	0x3f78570a	0.9700781
100	0x3f64d058	0.8938041
101	0x3f8038f7	1.0017384
102	0x3f7579fb	0.9588925
103	0x3f7f358a	0.9969107
104	0x3f81a57e	1.0128629
105	0x3f7f56cc	0.99741817
106	0x3f74e057	0.95654815
107	0x3f852b9a	1.0403931
108	0x3f6200db	0.88282555
109	0x3f7b2c66	0.9811462
110	0x3f6e2705	0.9302829
111	0x3f80be6b	1.0058111
112	0x3f85ab17	1.0442837
113	0x3f63ffee	0.8906239
114	0x3f8845d5	1.0646311
115	0x3f8d213b	1.1025766
116	0x3f77821d	0.9668291
117	0x3f69e5bd	0.9136618
118	0x3f855a59	1.0418197
119	0x3f7d19f3	0.9886772
120	0x3f7938f2	0.97352517
121	0x3f860263	1.0469478
122	0x3f76ad62	0.9635831
123	0x3f7bf04d	0.98413545
124	0x3f7c2518	0.984941
125	0x3f764b97	0.9620909
126	0x3f72ad80	0.9479599
127	0x3f76330d	0.9617165

shared_layers.4.bias f4 [128]
0	0xbcc85a90	-0.024457246
1	0xbb5c6277	-0.0033628026
2	0xbbc871eb	-0.0061170957
3	0x3cffd4c9	0.031229394
4	0x3c756827	0.014978445
5	0xbbc4a696	-0.006001304
6	0xbcd9735b	-0.026544264
7	0xbbe769ee	-0.0070621883
8	0x3be6a22e	0.0070383763
9	0x3d2959a7	0.041345265
10	0xbcbb61f3	-0.022873854
11	0xbd30eac9	-0.04319266
12	0x3c8ff7ba	0.01757418
13	0xbbfa49d5	-0.007638196
14	0xbbae4f55	-0.0053195157
15	0x3c923d7a	0.01785158
16	0x3c0b7198	0.00851097
17	0x3c45db5a	0.012076223
18	0x3cd4f0a9	0.025993662
19	0x3c228f2e	0.009921832
20	0x3d23a1ca	0.039949216
21	0xbc0f8a2b	-0.008760969
22	0x3c2e440c	0.010636341
23	0xbadc8c01	-0.0016826392
24	0xbc12705b	-0.00893792
25	0x3c1d5c27	0.00960449
26	0xbd0823f1	-0.0332374
27	0xbc8523ff	-0.016252516
28	0xbc8171ce	-0.015801337
29	0xbc0138f6	-0.007887116
30	0xbcae0d9c	-0.021246724
31	0x3c9fde94	0.019515313
32	0x3c87e724	0.016589709
33	0xbc4474e7	-0.011990762
34	0x3c53aa52	0.0129190255
35	0x3c984e97	0.018592162
36	0x3c041fca	0.00806422
37	0xbd0faef7	-0.03507897
38	0xbc842ac0	-0.016133666
39	0x3bcbc0a4	0.006218033
40	0x3c205096	0.009784838
41	0xbcbc2474	-0.022966601
42	0x3c4bd709	0.012441405
43	0xbcb2653d	-0.02177679
44	0x3c48c5ed	0.01225422
45	0x3cbd65d8	0.023119852
46	0x3c5c7b3d	0.013457117
47	0xbc0b6d08	-0.008509882
48	0xbd86418e	-0.06555472
49	0x3cd848de	0.026401933
50	0x3cbb486d	0.022861684
51	0xbc82fa65	-0.015988538
52	0xbcaeaecc	-0.021323584
53	0xbc8bb71b	-0.017055085
54	0xbcf50960	-0.029911697
55	0x3c6c647b	0.014428253
56	0x3cc3f686	0.023921262
57	0xbca1e2e7	-0.019761516
58	0xbd130a91	-0.03589875
59	0x3bc2a279	0.0059397784
60	0x3a985434	0.0011621774
61	0xbcdb2841	-0.026752593
62	0xbc61a3fb	-0.013772006
63	0xbb60087b	-0.0034184742
64	0x3c5814aa	0.01318852
65	0xbca94d37	-0.020666702
66	0xbb98670f	-0.0046509574
67	0xbb826ac6	-0.0039800135
68	0xbc88b42b	-0.016687473
69	0x3abc00e3	0.0014343526
70	0xbd00a2c1	-0.031405214
71	0x3bb3fbc0	0.0054926574
72	0xbbc0616f	-0.00587099
73	0xbd14937a	-0.036273457
74	0x3ca5298c	0.020161413
75	0xbbbb7ba6	-0.005721527
76	0xbcae16ca	-0.021251101
77	0xbcb24787	-0.021762623
78	0xbcbe26f0	-0.023211926
79	0x3b7776ca	0.0037760013
80	0xbc100392	-0.008789914
81	0xb9fb0ca3	-0.00047883866
82	0xbcbe7209	-0.023247736
83	0x3c86b99a	0.016445924
84	0x3ca5f667	0.020259095
85	0xbd491e54	-0.04910119
86	0x3c5ba4af	0.013405963
87	0x3ccc267e	0.024920698
88	0x3c9c3ed4	0.019072928
89	0x3c7f1e7d	0.015571234
90	0xbbd0b7af	-0.006369553
91	0xbca1fff2	-0.019775365
92	0xb98f762c	-0.0002736313
93	0x3b5fffe3	0.003417962
94	0x3c51d49d	0.012807039
95	0xbc36e690	-0.011163369
96	0x3c43fd76	0.011962285
97	0x3b52cd74	0.0032165917
98	0xbc89bf2b	-0.016814789
99	0xbb9eabd2	-0.00484226
100	0xbd3da697	-0.04630145
101	0xbc9c42d7	-0.01907484
102	0xbcd17aee	-0.025571313
103	0xbcfeb230	-0.031090826
104	0x3b8c49bd	0.004281251
105	0xbc495e6f	-0.012290581
106	0xbbe74016	-0.0070572
107	0x3b8a5303	0.0042213215
108	0xbd817e7d	-0.06322954
109	0xbd1fca23	-0.039011132
110	0xbd3dcd73	-0.04633851
111	0xbbb47549	-0.0055071455
112	0x3ca1249f	0.019670783
113	0xbd300bdb	-0.042980056
114	0x3cd938d7	0.026516361
115	0x3c9fd45c	0.01951044
116	0xbd16dd46	-0.036832117
117	0xbc931a67	-0.017956926
118	0x3cd53059	0.02602403
119	0xbb20c3cc	-0.0024530767
120	0xbca748b1	-0.020420404
121	0x3ca18ebb	0.01972138
122	0xbafb7131	-0.0019183514
123	0xbc8dd6ca	-0.017314333
124	0xbcb2c3d9	-0.021821903
125	0xbd846260	-0.06464076
126	0xbce05863	-0.027385896
127	0xbd0159a9	-0.031579647

shared_layers.6.weight f4 [128, 128]
0	0xbd858bab	-0.0652078
1	0xbd994447	-0.07483726
2	0x3dfac681	0.12244893
3	0xbd0e3a52	-0.034723587
4	0xbe92272f	-0.2854552
5	0x3e0bde5d	0.13659044
6	0x3bb0026f	0.005371384
7	0xbd1cda5b	-0.038294178
8	0x3e235bfb	0.15953057
9	0x3cc4b72e	0.024013128
10	0x3d6cc722	0.057807095
11	0xbc6d0f61	-0.014468999
12	0x3cecbf11	0.028899701
13	0x3bbd3096	0.005773614
14	0x3c813e13	0.01577667
15	0x3e018f6f	0.12652372
16	0xbe3fba54	-0.18723422
17	0xbb33cfe0	-0.0027437136
18	0x3d804d2b	0.062647186
19	0x3dbca0bd	0.09210346
20	0x3d9d55bc	0.07682368
21	0xbe778c49	-0.24174608
22	0x3c97268a	0.018450994
23	0x3d4fc173	0.050721597
24	0x3e2632a7	0.1623026
25	0x3e20924e	0.15680811
26	0xbe876e89	-0.2645152
27	0x3e487e40	0.1957941
28	0xbddf79dd	-0.109119155
29	0x3d931494	0.07181659
30	0x3e4a90b2	0.1978176
31	0x3e4e9217	0.20172916
32	0x3d7851bd	0.060624827
33	0xbe064414	-0.13111907
34	0x3d9f4d01	0.07778359
35	0x3e21acda	0.15788594
36	0xbe517a11	-0.20456721
37	0x3de71003	0.11282351
38	0xbd252425	-0.040317673
39	0x3cfbb972	0.030728076
40	0x3ced2602	0.028948788
41	0x3d7e1e23	0.06204046
42	0xbcf234ca	-0.029566187
43	0x3e0f7781	0.14010431
44	0x3e9f6e1b	0.3113869
45	0xbe8f7cf0	-0.28025007
46	0xbcc5cd2d	-0.024145687
47	0x3e545fbf	0.20739649
48	0xbe12e0dd	-0.14343591
49	0xbe2f2407	-0.17103587
50	0x3ce08851	0.02740875
51	0xbd55e711	-0.052222315
52	0x3c1880f3	0.009308088
53	0x3de7f652	0.11326279
54	0x3c800713	0.015628373
55	0xbcea7620	-0.02862078
56	0x3df1612c	0.11786112
57	0x3b912e80	0.004430592
58	0x3dd6b4a7	0.104836755
59	0xbd6fbb4c	-0.05852823
60	0x3d951549	0.072794504
61	0x3da92d76	0.08260624
62	0xbbfb3bee	-0.0076670563
63	0xbdf205d1	-0.11817516
64	0x3b20e673	0.002455142
65	0xbc19bd06	-0.009383446
66	0x3eb86190	0.36011934
67	0xbd889930	-0.06669843
68	0xbe3df547	-0.18550597
69	0x3c272a68	0.0102029815
70	0x3c5b9d0d	0.013404143
71	0x3e5eb0aa	0.2174708
72	0xbe4e1105	-0.2012368
73	0xbd9e4577	-0.07728093
74	0x3da7dc89	0.081963606
75	0xbd98bb21	-0.07457567
76	0xbcd45591	-0.025919707
77	0xbdd322d6	-0.10309379
78	0x3ded66a9	0.115918465
79	0x3df14d5a	0.11782332
80	0xbe72375b	-0.23653929
81	0x3d791c94	0.06081827
82	0x3d0f7c0c	0.03503041
83	0xbe396274	-0.18103963
84	0x3dd5d4cd	0.10440979
85	0x3e718fc9	0.23590006
86	0x3ce13900	0.027493
87	0x3e8fd0cf	0.28088996
88	0xbe5dab14	-0.21647292
89	0xbc827183	-0.015923267
90	0xbd356c22	-0.044292577
91	0x3d4d9932	0.050194927
92	0x3c9f4b6f	0.01944515
93	0xbc3295d0	-0.010899976
94	0xbe4c93f7	-0.19978319
95	0xbdeced73	-0.11568727
96	0x3dd6cce0	0.104882956
97	0xbbd72cf4	-0.006566638
98	0x3c2dd05c	0.010608759
99	0xbd96d89e	-0.07365535
100	0xbe0ee338	-0.13953865
101	0x3da151b8	0.07876915
102	0xbd1623ba	-0.036655165
103	0x3b7d6eaa	0.0038670697
104	0xbda2563a	-0.07926603
105	0xbe1c3d5d	-0.15257783
106	0xbd96ef59	-0.07369871
107	0x3def6629	0.116894074
108	0x3deafafd	0.114736535
109	0x3dce27fa	0.10066219
110	0x3e33bb35	0.17551883
111	0xbdb9ccdc	-0.09072277
112	0xbd991dd0	-0.074763894
113	0xbe0681a2	-0.13135388
114	0x3cfedd15	0.03111128
115	0x3de942df	0.11389708
116	0xbe803879	-0.25043085
117	0xbe4a6fa5	-0.19769152
118	0xbe9a6daf	-0.30161807
119	0x3c9e1e74	0.01930163
120	0x3e46c797	0.19412075
121	0x3cbdecd1	0.023184212
122	0xbdff767c	-0.12473771
123	0xbdb7496a	-0.089495495
124	0xbd54f742	-0.051993616
125	0xbd8f595a	-0.06999464
126	0xbdb3b8f1	-0.08775509
127	0x3c4b14f7	0.012395135
128	0xbd837e17	-0.06420534
129	0xbe312c29	-0.17302002
130	0x3c14231c	0.009041574
131	0x3e1b0471	0.15138413
132	0x3d09ebf9	0.033672307
133	0x3c3dbfec	0.011581402
134	0x3e1cf9f5	0.15329726
135	0x3cc0c0b6	0.023529392
136	0x3ddbdce8	0.10735494
137	0xbb9fd4a4	-0.0048776437
138	0xbe175b6b	-0.14780967
139	0x3df527b3	0.11970463
140	0xbd9a62db	-0.075383864
141	0xbcf9059b	-0.03039818
142	0x3dcab610	0.09898007
143	0x3da9ce8f	0.08291351
144	0xbe03210b	-0.12805574
145	0xbc2cd45a	-0.010548675
146	0x3dc2feb9	0.09521241
147	0xbde94956	-0.11390941
148	0xbe09375f	-0.13400029
149	0xbe5f0d72	-0.21782473
150	0xbe270c97	-0.16313396
151	0x3dec73d6	0.115455315
152	0x3e1c7d09	0.15282072
153	0xbd7edfc0	-0.062225103
154	0xbd7e6938	-0.062112063
155	0x3dec1de6	0.1152914
156	0x3dcdf71f	0.100569
157	0xbda52c04	-0.08065036
158	0x3c46e209	0.012138852
159	0x3e18f5d6	0.14937529
160	0xbe665413	-0.2249301
161	0x3e44e746	0.19228849
162	0x3df23023	0.118255876
163	0x3e1b70a4	0.15179688
164	0x3defc411	0.117073186
165	0xbdce5537	-0.10074847
166	0x3de135c1	0.10996581
167	0xbc95edb2	-0.018301819
168	0x3e36de8e	0.17858335
169	0xbdb2c57f	-0.08729076
170	0xbe18e4f1	-0.14931084
171	0x3d0ed97f	0.03487539
172	0x3dc69914	0.09697166
173	0xbdb02116	-0.08600061
174	0x3e1795a5	0.14803179
175	0x3e257b51	0.16160323
176	0x3d25311a	0.04033003
177	0xbe221098	-0.15826643
178	0x3d15897d	0.036508072
179	0x3e032c11	0.12809779
180	0xbe3a88e7	-0.18216287
181	0xbe1362fd	-0.1439323
182	0xbc8598b4	-0.016308166
183	0xbdf5c720	-0.12000871
184	0x3d93482a	0.071914986
185	0x3e7fa0d9	0.24963702
186	0xbead9868	-0.3390534
187	0x3e25a1d2	0.16175011
188	0xbd992b3c	-0.074789494
189	0xbc003cb8	-0.0078269765
190	0x3ddfa819	0.10920734
191	0xbcaa9b2e	-0.020825949
192	0x3d78e823	0.060768258
193	0x3ca76eea	0.02043863
194	0x3e8def9d	0.27721873
195	0x3e0bc1ff	0.13648222
196	0x3daa47cb	0.08314475
197	0xbdb227e9	-0.086990185
198	0x3e09ea0d	0.1346819
199	0xbdb84f5d	-0.08999512
200	0x3de59258	0.112095535
201	0xbce52ac2	-0.02797449
202	0xbe57f886	-0.21090898
203	0x3d413ceb	0.047177237
204	0x3d5d2d0d	0.053998042
205	0xbe3cacff	-0.18425368
206	0x3e646ae0	0.22306395
207	0x3d980d11	0.07424367
208	0x3de5de00	0.11223984
209	0x3db68b86	0.08913331
210	0x3dc8ea3c	0.09810302
211	0x3d93ef2a	0.07223351
212	0x3dc1e643	0.09467747
213	0x3db116c6	0.08646922
214	0xbc095f6a	-0.008384565
215	0xbe5025a0	-0.20326853
216	0xbdbdcf00	-0.09267998
217	0x3c9dbd59	0.019255327
218	0xbdef656a	-0.11689265
219	0xbdd78f08	-0.10525328
220	0xbe676cd3	-0.22600107
221	0x3d125eb0	0.035734832
222	0xbe5ee6dc	-0.21767753
223	0xbd910417	-0.07080858
224	0xbdf5e7a7	-0.12007075
225	0x3e086517	0.13319813
226	0xbd710b03	-0.058848392
227	0x3df54d77	0.11977666
228	0xbd48d99a	-0.049035646
229	0xbdbcd993	-0.092211865
230	0x3e6eeace	0.23331758
231	0x3b762e2d	0.0037564144
232	0xbdde96f7	-0.10868638
233	0x3dd04b03	0.10170557
234	0xbdf4e43a	-0.11957593
235	0xbca89e1f	-0.02058321
236	0xbbfdedd6	-0.0077492995
237	0xbd948b98	-0.07253188
238	0x3e8f243d	0.27957335
239	0x3e1a45d7	0.15065704
240	0xbe31f823	-0.17379813
241	0x3e024cf2	0.12724665
242	0xbe2da16c	-0.16956109
243	0x3d45edfb	0.04832266
244	0x3de57783	0.11204436
245	0x3d3daeb0	0.046309173
246	0x3e13886c	0.1440751
247	0xbe50bbdd	-0.20384164
248	0xbdf83997	-0.121203594
249	0xbd851b78	-0.0649938
250	0xbe88fe16	-0.26756352
251	0x3c3dd058	0.011585318
252	0x3d71cd33	0.059033584
253	0xbc67602e	-0.014122052
254	0xbe275449	-0.16340746
255	0x3e331185	0.17487152

shared_layers.6.bias f4 [128]
0	0xbb47be86	-0.003047855
1	0xbbafaaa5	-0.0053609186
2	0x3cc983e5	0.024599025
3	0xbcbf9942	-0.023388509
4	0x3cacca63	0.0210926
5	0x3c7e8cad	0.015536469
6	0xbce7d98e	-0.02830198
7	0x3cc5f906	0.024166595
8	0x3cfee2d7	0.031114025
9	0xbb17e0b2	-0.00231747
10	0x3bfb1b27	0.007663149
11	0x3bb58850	0.0055399314
12	0x3c421eb4	0.0118481405
13	0x3c773324	0.0150878765
14	0xbbb79f07	-0.0056036743
15	0x3cf1a2de	0.029496606
16	0x3d329963	0.043603312
17	0x3c735eae	0.014854116
18	0xbabb942f	-0.001431113
19	0x3cd6c047	0.026214732
20	0x3c9df9b3	0.019284105
21	0x3c880cce	0.016607668
22	0x3cd87af1	0.02642581
23	0x3cb8542a	0.02250107
24	0x3c874bb6	0.016515594
25	0xbb3ebc5a	-0.0029103965
26	0x3b614811	0.003437523
27	0xb9a9693e	-0.00032312603
28	0x3d109461	0.035297755
29	0x3cac112d	0.021004284
30	0x3d04169e	0.032248132
31	0xbc33db2f	-0.01097755
32	0xbc93a1e6	-0.018021535
33	0x3bd929d5	0.006627301
34	0x3d58325e	0.05278241
35	0xbcb5a612	-0.022173915
36	0xbc8a610d	-0.01689198
37	0x3cb78810	0.022403747
38	0xbc07f8ad	-0.008299035
39	0x3c1b2b30	0.009470746
40	0x3c91fb39	0.017819988
41	0x3b43f917	0.0029903108
42	0x3cbe6334	0.023240663
43	0x3c3e6f7a	0.011623258
44	0x3d2a1c17	0.041530695
45	0x3c9fefa3	0.019523447
46	0xbd04f0a5	-0.03245606
47	0x3ce29470	0.027658671
48	0x3af04f75	0.0018334227
49	0x3c1dfeda	0.009643281
50	0x3bf35f36	0.0074271215
51	0x3cabd621	0.020976128
52	0x3aaa27a6	0.0012981787
53	0x3c851965	0.01624746
54	0xbc46f850	-0.012144163
55	0xbc219db1	-0.009864257
56	0x3c12054e	0.008912398
57	0xbaca8e71	-0.0015453828
58	0x3c8e7292	0.017388616
59	0xbc7b1a78	-0.015326135
60	0x3ccfed19	0.025381612
61	0x3da46493	0.080269955
62	0x3c2e76b0	0.0106484145
63	0x3bd48c8a	0.00648648
64	0x3bfdaaaa	0.007741292
65	0xbb516fd5	-0.0031957526
66	0xbc48cf50	-0.012256458
67	0x3cf7bfd5	0.03024284
68	0xbb6bfaff	-0.003600776
69	0xbb7df700	-0.003875196
70	0x3b9264bb	0.0044675744
71	0x3cd74546	0.02627815
72	0x3ca5aa8f	0.02022293
73	0x3ca148dd	0.019688064
74	0x39e87a7b	0.00044341743
75	0xbc30d55a	-0.0107930545
76	0x3cb238ae	0.021755543
77	0x3d1d02e7	0.038332846
78	0xbbd6b19f	-0.006551936
79	0xbbe552e7	-0.006998408
80	0x3c6c20f1	0.014412151
81	0x3d12d424	0.035846844
82	0x3bffb3ae	0.007803402
83	0xbc4458b3	-0.011984038
84	0xbc8bf7ae	-0.017085876
85	0xbba0dc4a	-0.004909073
86	0xbb138cc0	-0.0022514313
87	0xbbca288b	-0.006169384
88	0x3c020be6	0.007937407
89	0xb9a4990b	-0.00031394543
90	0x3a81526a	0.000986648
91	0x3c8b0513	0.016970193
92	0x3c9ed8e5	0.019390533
93	0x3c697f65	0.014251565
94	0xbbb44d09	-0.0055023474
95	0xbcffb115	-0.031212369
96	0xbc2d1a01	-0.010565282
97	0x3b0da51a	0.00216133
98	0xbc09440f	-0.008378043
99	0x3b8e83d9	0.0043492136
100	0xbc94d8c6	-0.018169772
101	0xbcf4c4ee	-0.02987906
102	0xb9824d29	-0.0002485302
103	0x3d20b3b9	0.039233897
104	0x3ba0f460	0.0049119443
105	0x3c8f3a2f	0.017483799
106	0x3d19e619	0.037572954
107	0xbc58748f	-0.0132113835
108	0x3d0660b3	0.032807063
109	0x3ce0ae3b	0.02742683
110	0xbac9f71e	-0.001540873
111	0xbc22eef1	-0.009944663
112	0x3a53f848	0.0008086008
113	0xbbfe5d60	-0.007762596
114	0xbbc697ed	-0.0060605914
115	0x3d33f689	0.043936286
116	0xbc810289	-0.01574828
117	0x3d1133ea	0.0354499
118	0xbc2da647	-0.010598726
119	0x3d612a19	0.054971788
120	0x3c42851b	0.011872555
121	0x3cf658c3	0.030071622
122	0x3cc3d0a6	0.023903202
123	0xbc4567ef	-0.0120487055
124	0xbb7aff51	-0.0038299153
125	0xbae7deeb	-0.0017690336
126	0x3b12fc09	0.0022428057
127	0x3c52aea4	0.01285902

shared_layers.7.weight f4 [128]
0	0x3f81205a	1.0087998
1	0x3f79a9dd	0.97524816
2	0x3f80be99	1.0058166
3	0x3f7d6020	0.989748
4	0x3f81e61a	1.0148346
5	0x3f83100c	1.0239272
6	0x3f83c702	1.0295107
7	0x3f83c415	1.0294214
8	0x3f89d4bf	1.076805
9	0x3f8377c8	1.0270929
10	0x3f887c59	1.0662948
11	0x3f76e659	0.9644523
12	0x3f78dff1	0.9721671
13	0x3f8cc4cb	1.0997556
14	0x3f7bfa7b	0.9842908
15	0x3f813edb	1.0097307
16	0x3f8902b0	1.0703945
17	0x3f82a4d4	1.0206552
18	0x3f831c90	1.0243092
19	0x3f6d40ee	0.926772
20	0x3f7f55a4	0.9974005
21	0x3f8063b6	1.0030429
22	0x3f882013	1.0634788
23	0x3f82b1fe	1.0210569
24	0x3f899fe2	1.0751917
25	0x3f7ee768	0.9957185
26	0x3f8b2365	1.0870177
27	0x3f82e97b	1.0227503
28	0x3f8b022f	1.0860041
29	0x3f87d89b	1.0612978
30	0x3f8afbf3	1.0858139
31	0x3f8a2d8f	1.0795153
32	0x3f78e935	0.97230846
33	0x3f8047d0	1.0021915
34	0x3f859c67	1.0438355
35	0x3f8c0b69	1.0940982
36	0x3f7405db	0.95321435
37	0x3f8244a6	1.01772
38	0x3f815170	1.0102978
39	0x3f8d25d5	1.102717
40	0x3f861e33	1.0477966
41	0x3f7ae419	0.980043
42	0x3f8a81cc	1.0820861
43	0x3f820111	1.0156575
44	0x3f8714bf	1.0553206
45	0x3f79d3c2	0.9758874
46	0x3f807eb6	1.0038669
47	0x3f8e879c	1.1135135
48	0x3f81841d	1.0118443
49	0x3f8fac24	1.1224408
50	0x3f7ad543	0.9798166
51	0x3f818501	1.0118715
52	0x3f7bb900	0.9832916
53	0x3f81762b	1.0114187
54	0x3f84a2f1	1.0362226
55	0x3f7bab0e	0.98307884
56	0x3f7fc98c	0.9991691
57	0x3f80b407	1.005494
58	0x3f8887b3	1.0666412
59	0x3f79e804	0.9761965
60	0x3f8095d9	1.004573
61	0x3f893167	1.0718201
62	0x3f948fa6	1.1606338
63	0x3f7d3ac9	0.98917824
64	0x3f7d082c	0.98840594
65	0x3f811f48	1.0087671
66	0x3f8ad711	1.0846883
67	0x3f798afd	0.97477704
68	0x3f8677c2	1.0505297
69	0x3f7830e8	0.96949625
70	0x3f83f273	1.0308365
71	0x3f84460f	1.033388
72	0x3f79c915	0.9757245
73	0x3f78a4ac	0.9712627
74	0x3f7d7db1	0.99019915
75	0x3f6f0481	0.9336625
76	0x3f7992d4	0.97489667
77	0x3f6750ea	0.9035784
78	0x3f8588cd	1.0432373
79	0x3f864cd9	1.0492202
80	0x3f8461ae	1.034231
81	0x3f871859	1.0554305
82	0x3f83f599	1.0309325
83	0x3f83af81	1.0287935
84	0x3f7bb7d9	0.98327404
85	0x3f83ddab	1.0302023
86	0x3f8ff437	1.1246403
87	0x3f8133e4	1.0093961
88	0x3f82f915	1.0232264
89	0x3f6cd186	0.9250721
90	0x3f7e7c5b	0.994085
91	0x3f86adf5	1.0521837
92	0x3f85ad12	1.0443442
93	0x3f84a450	1.0362644
94	0x3f75dd2b	0.960406
95	0x3f8a7c5d	1.0819203
96	0x3f8544b1	1.0411588
97	0x3f81adcf	1.0131167
98	0x3f823ce2	1.017483
99	0x3f86d46a	1.0533574
100	0x3f767aae	0.96280944
101	0x3f71b401	0.9441529
102	0x3f805dfa	1.0028679
103	0x3f821812	1.0163596
104	0x3f8134ac	1.0094199
105	0x3f858c53	1.0433449
106	0x3f8576c2	1.0426867
107	0x3f73f09f	0.95289034
108	0x3f83b2ec	1.0288978
109	0x3f8640b3	1.0488495
110	0x3f7ac37c	0.97954535
111	0x3f80c922	1.0061381
112	0x3f8bc39f	1.0919074
113	0x3f764108	0.9619298
114	0x3f86c819	1.0529815
115	0x3f7e1dcf	0.99264234
116	0x3f829042	1.0200274
117	0x3f8c54fc	1.0963435
118	0x3f7ab92c	0.979388
119	0x3f925565	1.143231
120	0x3f812147	1.008828
121	0x3f8924fb	1.071441
122	0x3f851c22	1.039921
123	0x3f82766f	1.0192393
124	0x3f80ffe7	1.0078095
125	0x3f7d6823	0.98987025
126	0x3f7ab080	0.9792557
127	0x3f8704be	1.0548322

shared_layers.7.bias f4 [128]
0	0xbc448d03	-0.01199651
1	0xbcc7c3e0	-0.024385393
2	0x3c185a4e	0.009298874
3	0xbcc89186	-0.024483453
4	0x3c3a2d6c	0.0113633685
5	0xba57e11c	-0.0008235143
6	0xbccee23e	-0.025254365
7	0x3cf4792d	0.029842937
8	0x3b49461d	0.0030711957
9	0xbc1f19c5	-0.009710734
10	0xbc7496de	-0.014928548
11	0xbc7759de	-0.01509711
12	0xbaf69c86	-0.0018814958
13	0xbd6c4e46	-0.057691835
14	0xbc9b5e6c	-0.018965922
15	0x3a50ffb7	0.0007972675
16	0x3d311279	0.043230508
17	0x3c2d762c	0.010587256
18	0xbbd02f0d	-0.006353265
19	0xbcb695e2	-0.022288267
20	0x3bc851f9	0.0061132875
21	0x3c6d312c	0.0144770555
22	0x3caeb73e	0.021327611
23	0x3c34c98a	0.011034379
24	0x3b632f03	0.0034665472
25	0xbc339b86	-0.010962373
26	0xbd4fd14f	-0.05073672
27	0xbd815855	-0.06315676
28	0x3c818957	0.015812559
29	0x3be41b08	0.00696123
30	0x3d20140e	0.039081626
31	0xbcf275c3	-0.029597169
32	0xbd066b3a	-0.032817103
33	0xbb9070a4	-0.004407959
34	0x3d085f1f	0.03329384
35	0xbcf819de	-0.030285772
36	0xbd3abd47	-0.045590665
37	0x3caf5826	0.021404337
38	0xbc8c0101	-0.017090322
39	0xbc42392b	-0.01185445
40	0x3ca60eef	0.020270793
41	0xbc6caa29	-0.014444866
42	0x3cdec9a7	0.027195765
43	0x3ae06d7a	0.001712247
44	0x3cf182a9	0.029481249
45	0xbcc2cafa	-0.023778427
46	0xbd0c3e15	-0.034238894
47	0x3cbd77ac	0.023128353
48	0xbb601bb0	-0.003419619
49	0x3b71347a	0.003680496
50	0x3a98414d	0.0011616141
51	0x3cb65eb0	0.022261947
52	0xbc82e886	-0.015980016
53	0x3c5fc967	0.013658858
54	0xbcc6f0ae	-0.024284687
55	0xbd09924e	-0.033586793
56	0x39b9733d	0.0003537181
57	0xbb1ac5a3	-0.0023616336
58	0x3c1221e4	0.008919213
59	0xbc984411	-0.018587144
60	0x3c8c24c3	0.017107373
61	0x3d9ec6b5	0.07752744
62	0xbca625a5	-0.020281622
63	0x3bea7d14	0.0071560238
64	0xbba81e02	-0.0051305303
65	0xbbb0ee7f	-0.0053995247
66	0xbcd4bd87	-0.02596928
67	0x3a388f90	0.00070404354
68	0xbcd0e74e	-0.02550092
69	0xbd2a7cd7	-0.041622963
70	0xbc5850cb	-0.013202856
71	0x3ccc2d03	0.024923807
72	0x3bf97013	0.0076122372
73	0x3b9c39fe	0.0047676554
74	0xbd1c6b82	-0.038188465
75	0xbcb8cdb3	-0.022559023
76	0xbc217be6	-0.0098562
77	0xbbb45f2b	-0.005504509
78	0xbc96cea5	-0.018409083
79	0xbbe58098	-0.007003855
80	0x3c26e018	0.010185264
81	0x3d0e74a7	0.034779217
82	0x3c6675ee	0.014066203
83	0xbcf09096	-0.029365819
84	0xbcf46a7f	-0.029835938
85	0xbd1e190b	-0.0385981
86	0xba271085	-0.0006373006
87	0xbc7061d5	-0.0146717625
88	0xbb70f8af	-0.003676932
89	0xbcb450d6	-0.022011202
90	0xbd50292e	-0.050820522
91	0x3c722d62	0.014781328
92	0x3b664170	0.0035134219
93	0x3c9192e1	0.017770233
94	0xbd1262f4	-0.0357389
95	0xbd70e9a8	-0.058816582
96	0xbcc7d641	-0.024394156
97	0xbc35d4fa	-0.011098141
98	0xbd279f83	-0.040923607
99	0xbc35e3dc	-0.011101689
100	0xbce4153b	-0.027842155
101	0xbd5d6c51	-0.054058377
102	0xbc5a7ffa	-0.013336176
103	0x3cb91043	0.022590762
104	0x3b19ccd3	0.0023468032
105	0x3c875c28	0.016523436
106	0x3d04a553	0.032384228
107	0xbcfcf0a0	-0.030876458
108	0x3c8a2df8	0.016867623
109	0x3c91a454	0.017778553
110	0xbc0d58b2	-0.008627104
111	0xbc84ce64	-0.016211696
112	0xbc1a8aa2	-0.009432467
113	0xbc27350e	-0.01020552
114	0xbce4760f	-0.027888326
115	0x3c323bad	0.010878486
116	0xbd1c4633	-0.038152885
117	0x3d4ae78d	0.04953723
118	0xbc644fce	-0.013935043
119	0x3d7b8f82	0.061416157
120	0x3be5db0e	0.0070146387
121	0x3d0a53b9	0.03377125
122	0xbbe7ab9a	-0.007070017
123	0xbc7702d7	-0.015076361
124	0xbbbe5f2c	-0.005809685
125	0xbcde59c1	-0.027142407
126	0xba1b3415	-0.00059205416
127	0x3c8f2057	0.017471476
