flappy_bird_model_1.pth (torch, 94301 bytes, 23 tensors)

shared_layers.0.weight f4 [64, 4]
0.6568036 0.23234123 1.3303475 0.11072229 -0.09224551 0.34708858 0.606143 0.6917368
-0.25763845 0.12699878 -0.011496212 0.8061156 -0.92593735 0.65617025 -1.0246854 -0.40801308
-0.60094094 0.34272674 1.0872729 -1.3523617 0.060768403 -0.008515394 0.34963846 -1.2390805
0.69303244 0.5617717 0.58836985 0.8713101 -0.22816403 0.09425541 -4.242552 0.1383206
-0.5360817 -0.7834822 -0.3156282 -1.0239687 0.12407592 0.51862174 0.5271192 -0.10639688
0.113030806 -0.7599188 0.8694131 1.5643396 -0.3917637 -0.014469246 -0.46093497 0.10833038
0.8711376 0.4229281 -0.36549506 -0.4795286 0.35481584 0.15878244 0.6467307 0.6057348
0.6165098 0.2585458 -0.25389653 -0.3993258 -0.66287297 0.56943685 0.9134585 1.8065547
-0.9484213 0.39473733 -0.19514534 -0.3456931 0.254647 0.054291975 -0.35020468 -0.33948967
0.028258434 0.011860669 0.07843948 -1.1270728 0.21925679 -0.010028029 -1.9972155 0.70691556
1.3641059 0.31726626 -1.6773434 0.90421945 -0.28878832 0.06278333 -0.9143138 -1.0901349
-0.0012907253 1.3149661 -0.35925317 3.4628701 0.030328877 0.06736221 0.65949464 0.9767985
0.20481229 0.10300718 0.30709386 -0.20336664 -0.53555447 0.1279853 -0.34063742 1.614097
0.48961505 -0.4748882 -1.0311394 -0.44424933 0.81976885 0.27114606 -0.09271974 0.34369698
0.1333471 0.42697445 -1.6607068 -0.12812673 -0.6933918 0.057094283 -0.23895194 -0.1959079
0.68085045 0.30500218 0.4291119 1.218337 0.22919446 0.053966284 -1.3261023 -0.5774957
0.72354805 0.25376898 1.0817654 -1.8195367 -0.42063436 0.10547021 -0.48456156 0.14696035
0.7785639 0.0070963916 -1.0555257 1.6992893 0.017434862 0.5543951 -0.5266124 1.1223896
0.6431118 0.46100897 0.16755669 0.2991324 0.037844386 0.07354048 -0.7764855 1.6148885
0.0070820814 -1.1404842 -0.6443254 -1.1942266 0.132734 0.118400104 0.48407406 2.144637
-1.4650441 0.49485907 -2.213972 1.1220616 -0.029739654 -0.081060514 -2.1407008 2.0237489
-1.0168182 -0.53346026 0.3501137 2.4033992 -0.31379068 0.6946926 0.57451653 -2.846824
1.0794884 0.20072058 -0.7285698 -1.1071222 -0.6740031 -0.3441351 -1.2370244 -1.3340707
0.4538728 -1.1709347 0.8916369 -0.9192659 -0.11030782 -0.015681192 -0.23646127 -0.8894081
-0.21679987 0.34350747 0.8995745 -1.4865147 0.57597965 0.22220373 0.12460706 1.1383396
-0.56926 -0.22335882 1.056213 1.0311263 1.3033148 -0.4325988 0.9496365 -0.7856213
0.34060338 0.543072 0.7278436 1.6316363 0.20250325 -0.4686861 0.53213125 -1.3601817
-0.11713171 0.18063203 0.3927233 2.635472 0.3692987 0.07493562 -0.18311878 -0.028632948
-0.19059414 0.21625689 0.27035892 -1.5930963 0.44468945 0.0391846 0.5170801 2.2288842
-0.046913456 -0.015859192 0.24393897 2.098682 -0.6098876 -0.41896093 1.0475448 -1.9445778
0.10978711 -0.300682 -1.0903465 -0.4680468 1.11484 -0.01722783 -0.23594238 -0.3071096
0.085135266 0.41627467 0.2043161 -0.456781 -0.5855717 -0.58302814 -2.2657866 0.074721694
00000000: 4824 283f dcea 6d3e d448 aa3f 5ec2 e23d
00000010: 37eb bcbd 98b5 b13e 302c 1b3f aa15 313f
00000020: 30e9 83be f80b 023e 9c5a 3cbc 985d 4e3f
00000030: 3b0a 6dbf c6fa 273f e428 83bf 17e7 d0be
00000040: 44d7 19bf e179 af3e c22b 8b3f 301a adbf
00000050: 4ae8 783d 2784 0bbc d003 b33e 319a 9ebf
00000060: 936a 313f 45d0 0f3f 689f 163f 2e0e 5f3f
00000070: d5a3 69be fb08 c13d fcc2 87c0 eaa3 0d3e
00000080: a63c 09bf 4a92 48bf 059a a1be 6811 83bf
00000090: 841b fe3d 65c4 043f 49f1 063f 9be6 d9bd
000000a0: b27c e73d 0a8a 42bf db91 5e3f 483c c83f
000000b0: 4095 c8be 6b10 6dbc abff ebbe 51dc dd3d
000000c0: e002 5f3f 088a d83e 2b22 bbbe c684 f5be
000000d0: 6caa b53e dd97 223e 2590 253f 7011 1b3f
000000e0: 96d3 1d3f 1d60 843e bafe 81be 6e74 ccbe
000000f0: 0bb2 29bf 9dc6 113f 6bd8 693f 2f3d e73f
00000100: bdcb 72bf 031b ca3e 2ed4 47be b0fe b0be
00000110: 1761 823e 4361 5e3d 074e b3be 97d1 adbe
00000120: 3b7e e73c 4053 423c e1a4 a03d ec43 90bf
00000130: da84 603e 9a4c 24bc c2a4 ffbf 6bf8 343f
00000140: 069b ae3f b970 a23e 30b3 d6bf ed7a 673f
00000150: 10dc 93be 8c94 803d 7810 6abf 8a89 8bbf
00000160: 8e2d a9ba cf50 a83f 08f0 b7be aa9f 5d40
00000170: 4474 f83c 33f5 893d a4d4 283f 770f 7a3f
00000180: 50ba 513e 6ef5 d23d 683b 9d3e 583f 50be
00000190: 191a 09bf 940e 033e 0768 aebe bb9a ce3f
000001a0: d3ae fa3e 8c24 f3be 60fc 83bf a674 e3be
000001b0: 5fdc 513f a8d3 8a3e d9e3 bdbd 0df9 af3e
000001c0: 248c 083e 659c da3e 0a92 d4bf a733 03be
000001d0: 2082 31bf b2db 693d d1af 74be 159c 48be
000001e0: 374c 2e3f 3f29 9c3e 8eb4 db3e 78f2 9b3f
000001f0: f4b1 6a3e c00b 5d3d b8bd a9bf c2d6 13bf
00000200: 723a 393f 02ee 813e 4a77 8a3f 94e6 e8bf
00000210: 635d d7be c400 d83d 7418 f8be c67c 163e
00000220: f74f 473f d988 e83b 771b 87bf 5082 d93f
00000230: 8ed3 8e3c d6ec 0d3f 12d0 06bf 76aa 8f3f
00000240: faa2 243f 5e09 ec3e fb93 2b3e e227 993e
00000250: b702 1b3d 649c 963d c1c7 46bf abb4 ce3f
00000260: ce10 e83b 63fb 91bf 82f2 24bf 6bdc 98bf
00000270: 6ceb 073e c17b f23d 8ed8 f73e bc41 0940
00000280: 9186 bbbf 2b5e fd3e b8b1 0dc0 b79f 8f3f
00000290: 93a0 f3bc 0e03 a6bd 3e01 09c0 1a85 0140
000002a0: 1927 82bf da90 08bf 1a42 b33e 4bd1 1940
000002b0: 2ca9 a0be 60d7 313f 8413 133f 5d32 36c0
000002c0: ad2c 8a3f b289 4d3e 8d83 3abf 2eb6 8dbf
000002d0: 788b 2cbf 7a32 b0be d156 9ebf d4c2 aabf
000002e0: 0462 e83e 30e1 95bf 5142 643f 0355 6bbf
000002f0: 11e9 e1bd d875 80bc e722 72be 40b0 63bf
00000300: c900 5ebe 36e0 af3e 844a 663f 1d46 bebf
00000310: 6773 133f 6089 633e fc31 ff3d 1db5 913f
00000320: 06bb 11bf 2db8 64be fd31 873f f2fb 833f
00000330: 05d3 a63f 977d ddbe 611b 733f 7a1e 49bf
00000340: 9163 ae3e c406 0b3f f553 3a3f 75d9 d03f
00000350: 035d 4f3e a0f7 efbe c139 083f 6f1a aebf
00000360: c0e2 efbd 9af7 383e 0713 c93e 93ab 2840
00000370: b814 bd3e d977 993d 7d83 3bbe a58f eabc
00000380: 1c2b 43be 7272 5d3e 7c6c 8a3e 94ea cbbf
00000390: 56ae e33e 0880 203d 5d5f 043f 0aa6 0e40
000003a0: 5328 40bd 23eb 81bc 23cb 793e ce50 0640
000003b0: 9821 1cbf 0c82 d6be f315 863f ede7 f8bf
000003c0: 10d8 e03d fef2 99be 7990 8bbf d5a3 efbe
000003d0: 14b3 8e3f 6121 8dbc e19a 71be 783d 9dbe
000003e0: 665b ae3d f421 d53e 3d38 513e 33df e9be
000003f0: 07e8 15bf 5541 15bf a602 11c0 b007 993d

shared_layers.0.bias f4 [64]
-0.14291994 -0.15154308 0.25981918 0.31170645 -0.11359255 -0.18794131 -0.27959856 0.26046354
-0.34161645 -0.08767483 0.08491224 0.32981062 -0.0567339 -0.2064263 -0.024547199 -0.17092872
0.5065066 -0.18787667 0.050858743 0.27274066 -0.34895745 0.052094296 -0.07663783 0.08641009
-0.15094589 0.5241231 -0.42459202 -0.19415255 -0.0898403 0.36398867 -0.15464403 0.06920615
-0.012726584 0.49510193 -0.23273966 0.14566831 0.007853089 -0.12183706 -0.39331698 0.2641239
0.598425 0.063608065 0.2511093 0.16605635 0.16070381 0.07076856 -0.4689458 0.02569524
-0.011098143 -0.06297374 0.2607092 -0.022797003 0.08576657 -0.14070727 -0.1604557 -0.1690222
0.10310513 0.032867663 0.032795124 -0.24260204 -0.07130038 -0.13995484 0.17437612 0.11987171
00000000: 9b59 12be 1c2e 1bbe 0507 853e fd97 9f3e
00000010: 36a3 e8bd b073 40be 8b27 8fbe 7a5b 853e
00000020: 5ae8 aebe dc8e b3bd 78e6 ad3d f0dc a83e
00000030: ce61 68bd 6a61 53be 3517 c9bc f007 2fbe
00000040: 6baa 013f be62 40be 4251 503d aaa4 8b3e
00000050: 8daa b2be d460 553d 4bf4 9cbd c6f7 b03d
00000060: 8f91 1abe ee2c 063f 2064 d9be edcf 46be
00000070: 31fe b7bd b95c ba3e 015b 1ebe f4bb 8d3d
00000080: 2a83 50bc 007e fd3e 4e53 6ebe 132a 153e
00000090: 3eaa 003c b585 f9bd d860 c9be 3f3b 873e
000000a0: 6132 193f f244 823d 6691 803e ad0a 2a3e
000000b0: 8a8f 243e 1bef 903d aa19 f0be d37e d23c
000000c0: fcd4 35bc 60f8 80bd ad7b 853e c8c0 babc
000000d0: 62a6 af3d 9115 10be 804e 24be 2814 2dbe
000000e0: c828 d33d 3ea0 063d 2e54 063d ab6c 78be
000000f0: ef05 92bd 5250 0fbe a78f 323e 4d7f f53d

shared_layers.1.weight f4 [64]
1.0955559 0.99641925 0.78100145 1.3006252 1.590319 1.6133751 0.79831606 2.3113546
1.9738921 0.5354424 0.66002923 0.9581422 0.69504184 1.2605673 0.40404776 1.3726559
1.2572112 0.96027714 0.9653059 1.5126618 1.0632124 1.4581611 0.87222904 0.37217695
0.87817013 1.6302594 0.94263387 0.7373541 1.1038289 0.9210582 0.7228605 1.4794527
0.9711213 1.381492 1.0826426 0.47954428 0.65442866 1.0290805 0.8954882 1.5733017
1.5446647 1.627561 1.1773871 0.92397636 0.8899853 1.602955 0.64338523 1.0312183
0.7746207 0.9173438 0.78375167 0.6034919 1.013031 0.9783894 2.6334677 1.0345159
0.74672097 1.181392 1.083965 1.5583442 1.0244652 0.7454712 0.72504663 1.335924
00000000: 2d3b 8c3f 5515 7f3f b6ef 473f e37a a63f
00000010: 938f cb3f 1383 ce3f 715e 4c3f 3ced 1340
00000020: 7fa8 fc3f c112 093f adf7 283f cf48 753f
00000030: 43ee 313f 455a a13f 59df ce3e 30b3 af3f
00000040: 4cec a03f b9d4 753f 4a1e 773f e79e c13f
00000050: 5817 883f 06a5 ba3f 674a 5f3f fa8d be3e
00000060: c2cf 603f 57ac d03f 7450 713f 3dc3 3c3f
00000070: 444a 8d3f 78ca 6b3f 630d 393f b55e bd3f
00000080: 689b 783f bbd4 b03f 0894 8a3f d486 f53e
00000090: a388 273f e9b8 833f b73e 653f f361 c93f
000000a0: 93b7 c53f eb53 d03f 9fb4 963f b789 6c3f
000000b0: 14d6 633f a12d cd3f e5b4 243f f6fe 833f
000000c0: 8b4d 463f 0bd7 6a3f f3a3 483f 727e 1a3f
000000d0: 00ab 813f ba77 7a3f bc8a 2840 046b 843f
000000e0: 1b29 3f3f da37 973f 5dbf 8a3f d377 c73f
000000f0: ad21 833f 33d7 3e3f a89c 393f 8fff aa3f

shared_layers.1.bias f4 [64]
-0.11667228 0.046797015 -0.18017487 0.011810817 0.18566293 0.16378056 -0.18762387 0.37725064
0.16062006 -0.13322957 -0.39077225 -0.12933463 -0.31910828 -0.011195496 -0.23336327 0.17292213
0.046434753 0.26586008 -0.05486248 0.035240926 -0.11942095 0.22699602 -0.14565256 -0.16468465
0.10637872 0.13628505 -0.17150372 -0.19061963 0.023851784 0.044882588 -0.27523026 0.033847526
-0.11727156 0.08902597 -0.19728832 -0.28911108 -0.36039412 0.045647614 -0.09286113 -0.021566715
-0.058251757 -0.0030946732 -0.13583133 -0.08829953 -0.19789985 0.19902126 -0.4387228 0.13885191
-0.106295094 -0.24886723 -0.10190337 -0.4035018 -0.13754621 -0.035248235 0.19427672 0.07944183
-0.10244741 -0.15046366 -0.08999913 0.20777567 0.064236544 -0.30419102 -0.24541979 0.034846555
00000000: e0f1 eebd 3aae 3f3d c37f 38be 2882 413c
00000010: 6c1e 3e3e 17b6 273e 7920 40be ff26 c13e
00000020: 9679 243e 556d 08be 4d13 c8be 4c70 04be
00000030: 2962 a3be 506d 37bc c8f6 6ebe 8012 313e
00000040: 5e32 3e3d d01e 883e 7bb7 60bd ca58 103d
00000050: f992 f4bd a571 683e f225 15be 18a3 28be
00000060: 16dd d93d 4f8e 0b3e ac9e 2fbe cb31 43be
00000070: d164 c33c ced6 373d fbea 8cbe b4a3 0a3d
00000080: 122c f0bd 3f53 b63d f305 4abe 5e06 94be
00000090: 9485 b8be fef8 3a3d fa2d bebd aeac b0bc
000000a0: 6599 6ebd 00d0 4abb 5e17 0bbe 62d6 b4bd
000000b0: 42a6 4abe 3bcc 4b3e 46a0 e0be 322f 0e3e
000000c0: 3eb1 d9bd 0dd7 7ebe b7b2 d0bd ca97 cebe
000000d0: ead8 0cbe 7460 10bd 7af0 463e 66b2 a23d
000000e0: f3cf d1bd 2513 1abe 7751 b8bd 25c3 543e
000000f0: 738e 833d edbe 9bbe 534f 7bbe 43bb 0e3d

shared_layers.3.weight f4 [128, 64]
-0.70525223 -0.34782347 -0.38020808 -0.04735447 -0.63050747 0.12482285 -0.26286697 0.20742323
0.7888013 -0.046652082 -0.46522722 -0.31185246 0.020228524 -0.18063726 0.17006524 -0.6420276
0.14507742 1.1099522 0.036891688 -0.3727296 0.15596917 0.5726793 0.68934864 -0.23472314
0.13791046 -0.8235228 -0.088929504 0.06975172 0.39755487 -0.04476323 -0.06547814 0.3300193
-0.08517498 -0.2727343 0.06604581 0.16550496 0.016698102 0.2153053 0.23414473 -0.64577556
0.4285409 -0.32023057 -0.015014834 0.047441073 0.15700153 0.8530085 0.4982554 0.68388957
-0.040796895 -0.1430347 -0.4710622 0.19237277 0.17625326 0.28503928 -0.546981 0.39551914
-0.04980117 -0.2705598 -0.13483109 -0.07090893 0.4204354 0.072208785 0.007886336 0.06966571
-0.28643432 -0.39690512 0.25027132 0.09628405 -0.117713 0.10148704 -0.31938052 -0.052064613
0.5420266 0.16357155 -0.19186258 -0.04276275 0.1892442 -0.28852278 0.10289908 -0.4239654
0.23311305 0.13481109 0.09116153 0.1286506 -0.21936579 -0.2803573 -0.1053993 -0.021222813
-0.21707457 0.203604 0.12871572 -0.10256879 -0.098251216 -0.17869703 -0.13478209 0.15856148
0.47564313 0.35033694 -0.110791385 -0.033906072 0.2926498 -0.020243645 0.118496925 0.13375762
0.54903525 -0.013079717 0.33300504 -0.057865176 0.21082471 0.4423923 0.024771133 -0.10527561
0.10944536 0.01352129 -0.22901437 -0.121566065 0.11147819 0.16630593 -0.4160398 0.0034284354
0.11393885 0.11884284 0.24767852 -0.0035624425 0.00888986 0.1768563 -0.18762378 -0.2601094
-0.2982016 -0.046710297 -0.39759532 0.22435242 -0.32834092 -0.46952376 -0.30640516 -0.6722402
-0.34225926 -0.0335325 0.16953751 -0.17608842 0.060298316 -0.106456585 0.13932452 -0.14723569
0.3758418 0.019658038 -0.14019528 0.31195664 0.35813764 0.19806173 -0.29440483 0.09605357
-0.1397454 0.053493332 -0.10107152 0.2873883 0.30829847 -0.20866515 -0.08116835 0.00079234474
0.06573454 0.11763289 0.5349054 0.12364661 0.24822897 0.23546137 -0.016342556 -0.058157288
-0.3119225 0.2493996 0.33821246 -0.19004986 -0.07189142 -0.98353183 0.32553977 -0.17319341
-0.33790275 0.06692942 -0.06813184 0.0013717517 0.14218712 -0.23644646 0.26534688 0.5813496
0.013866988 0.18641397 -0.16099954 -0.11670337 -0.38592336 0.049298845 -0.069790915 -0.5619441
-0.0076597575 -0.027998373 0.022517156 0.07789886 0.009520792 -0.12823953 -0.26579747 -0.18477313
0.257944 -0.23602 -0.10847056 0.052908357 0.1444102 0.33826876 -0.35232037 -0.4666714
0.3271517 -0.14719632 0.1369461 0.10941509 0.3829521 -0.1294933 -0.20052606 0.09192027
0.058912016 0.51587594 0.16075599 -0.22840583 -0.25543565 -0.04796888 -0.12344575 -0.050380547
0.07021268 0.4346053 0.08434621 0.12138792 0.057920754 -0.14918596 0.037756395 -0.37667078
0.30418348 -0.24970876 -0.10411213 0.33466777 0.200943 -0.37359917 0.23698185 -0.079379335
0.13419032 -0.047103837 -0.24038936 0.26525387 -0.0096950885 0.07740448 -0.40055597 -0.2869235
-0.05508287 0.20318463 0.18304023 0.23038682 -0.07213562 -0.32505032 0.3768797 -0.09140366
00000000: 698b 34bf eb15 b2be a2aa c2be c3f6 41bd
00000010: f068 21bf 1fa3 ff3d 8096 86be c166 543e
00000020: e2ee 493f 4116 3fbd 4332 eebe 20ab 9fbe
00000030: 4ab6 a53c f9f8 38be 9525 2e3e ec5b 24bf
00000040: 2d8f 143e ea12 8e3f bd1b 173d 6ad6 bebe
00000050: 62b6 1f3e 1c9b 123f 2779 303f 435b 70be
00000060: 6638 0d3e 64d2 52bf ac20 b6bd fdd9 8e3d
00000070: 508c cb3e a659 37bd 6719 86bd 4af8 a83e
00000080: 3870 aebd d5a3 8bbe 0743 873d 227a 293e
00000090: 75ca 883c fe78 5c3e a3c3 6f3e 8c51 25bf
000000a0: b669 db3e 43f5 a3be c700 76bc 9251 423d
000000b0: 02c5 203e c45e 5a3f 551b ff3e 6313 2f3f
000000c0: a51a 27bd b077 12be 112f f1be 5efd 443e
000000d0: bc7b 343e abf0 913e f206 0cbf 7c81 ca3e
000000e0: 50fc 4bbd d086 8abe 2911 0abe b338 91bd
000000f0: 4f43 d73e 33e2 933d b135 013c e5ac 8e3d
00000100: 85a7 92be 2637 cbbe 9023 803e 9230 c53d
00000110: 8313 f1bd 70d8 cf3d d885 a3be b441 55bd
00000120: 41c2 0a3f 4d7f 273e a077 44be fe27 2fbd
00000130: 3bc9 413e 42b9 93be c1bc d23d fe11 d9be
00000140: 30b5 6e3e eb0b 0a3e e5b2 ba3d fcbc 033e
00000150: 6da1 60be fe8a 8fbe 97db d7bd 77db adbc
00000160: cc48 5ebe 917d 503e 0ece 033e 960f d2bd
00000170: ef37 c9bd 5bfc 36be 5104 0abe f15d 223e
00000180: 7f87 f33e 5d5f b33e 98e6 e2bd 18e1 0abd
00000190: 32d6 953e 00d6 a5bc 84ae f23d c2f7 083e
000001a0: 938d 0c3f 4f4c 56bc a37f aa3e 0904 6dbd
000001b0: 6fe2 573e 3e81 e23e d5ec ca3c bd9a d7bd
000001c0: e424 e03d 6788 5d3c be82 6abe a1f7 f8bd
000001d0: ad4e e43d 1a4c 2a3e 2b03 d5be 9aaf 603b
000001e0: c658 e93d e063 f33d 709f 7d3e de77 69bb
000001f0: c6a6 113c d119 353e 7320 40be 0f2d 85be
00000200: e1ad 98be 4c53 3fbd 9d91 cbbe a4bc 653e
00000210: 4d1c a8be 6b65 f0be 23e1 9cbe ef17 2cbf
00000220: 9b3c afbe 6059 09bd 3e9b 2d3e 8650 34be
00000230: 5efb 763d e905 dabd 16ab 0e3e f4c4 16be
00000240: 566e c03e e509 a13c 5a8f 0fbe c8b8 9f3e
00000250: d15d b73e b2d0 4a3e 3bbc 96be bcb7 c43d
00000260: 6b19 0fbe d31b 5b3d 96fe cebd 8f24 933e
00000270: 4cd9 9d3e 51ac 55be 983b a6bd 5bb5 4f3a
00000280: d59f 863d 83e9 f03d 8fef 083f 6f3a fd3d
00000290: bc2f 7e3e c91c 713e d3e0 85bc 5636 6ebd
000002a0: 4eb4 9fbe 9c62 7f3e 2f2a ad3e 6e9c 42be
000002b0: cf3b 93bd bec8 7bbf 26ad a63e 9d59 31be
000002c0: 9701 adbe 4b12 893d b588 8bbd 59cc b33a
000002d0: 8099 113e 051f 72be 8cdb 873e 54d3 143f
000002e0: 5d32 633c 4ee3 3e3e 10dd 24be 2d02 efbd
000002f0: bf97 c5be 96ed 493d 8aee 8ebd 92db 0fbf
00000300: b4fe fabb d85c e5bc e675 b83c 7089 9f3d
00000310: 19fd 1b3c 3951 03be 9b16 88be 2b35 3dbe
00000320: 3c11 843e 3aaf 71be d025 debd 6fb6 583d
00000330: 44e0 133e 9031 ad3e 5663 b4be 8eef eebe
00000340: 6d80 a73e a2ba 16be 993b 0c3e 0515 e03d
00000350: 4c12 c43e e499 04be b456 4dbe b240 bc3d
00000360: ba4d 713d 7210 043f 389d 243e 38e3 69be
00000370: 76c8 82be 047b 44bd 20d1 fcbd d55b 4ebd
00000380: aacb 8f3d 9684 de3e b5bd ac3d 3b9a f83d
00000390: 503e 6d3d 34c4 18be 73a6 1a3d feda c0be
000003a0: f0bd 9b3e a7b3 7fbe be38 d5bd 9359 ab3e
000003b0: 00c4 4d3e 6448 bfbe 5fab 723e a291 a2bd
000003c0: 3069 093e f4ef 40bd a128 76be 5bcf 873e
000003d0: 26d8 1ebc 3d86 9e3d ac15 cdbe a3e7 92be
000003e0: 939e 61bd a20f 503e e66e 3b3e 86ea 6b3e
000003f0: d7bb 93bd ff6c a6be 60f6 c03e d831 bbbd

shared_layers.3.bias f4 [128]
-0.0024580096 0.038162306 0.047873154 -0.010178425 0.069090925 0.19098319 0.16066583 0.14350094
0.17200425 0.1289403 0.060481224 -0.012906842 0.088273376 0.28377977 0.027221475 0.07241055
0.08081926 -0.088123284 -0.15639123 0.17737594 0.06848518 0.020275952 0.057760596 0.13764907
-0.029578406 0.21557744 0.03388366 0.16655843 0.22411369 0.0023832857 0.12833242 0.06440207
0.058507685 0.05732764 0.19817185 0.08994793 -0.1461677 0.22205944 0.0753613 -0.019647822
0.038403206 0.14519674 0.031352863 -0.16807137 0.034524605 0.15394223 0.13031149 0.06568519
0.15908898 0.112546906 0.04875354 0.04177923 0.2996828 -0.06905024 0.09586009 -0.17518248
0.14531924 0.12461117 0.003588538 -0.08341112 -0.08465807 0.082083344 0.24353443 0.028170075
0.14158392 0.19880268 0.033858564 0.28967458 0.011649503 -0.12351782 -0.061332215 -0.026884768
0.07866129 -0.054791022 -0.079445146 0.12177412 0.05342488 0.100039914 0.122514464 0.20486459
0.17852895 0.14762211 0.21575953 -0.11934896 0.0818036 0.10703764 0.25350955 -0.06960489
0.08901487 -0.12806907 0.08923739 0.090777256 0.19226505 0.069235586 0.19953996 0.17661779
-0.061672434 0.09753308 -0.07311791 0.13724215 0.19612007 0.10253032 0.23333792 0.1628013
0.11803582 0.04421605 0.11106908 0.17358606 -0.0029797044 0.08218579 0.018554347 0.014053225
0.09949322 -0.087495215 0.08240631 0.21718113 0.14729296 0.21372022 -0.11311943 0.09828665
0.07517982 0.13189307 -0.07072103 0.07094109 -0.06908604 0.010676463 0.13624154 0.15379046
00000000: 8f16 21bb 1450 1c3d a416 443d 69c3 26bc
00000010: 8b7f 8d3d 1991 433e 9585 243e e9f1 123e
00000020: e221 303e ed08 043e 29bb 773d 3877 53bc
00000030: acc8 b43d 954b 913e 92ff de3c fc4b 943d
00000040: 9184 a53d fb79 b4bd 0625 20be 0aa2 353e
00000050: f541 8c3d c119 a63c 6096 6c3d e1f3 0c3e
00000060: 6a4e f2bc 55c0 5c3e 98c9 0a3d 4b8e 2a3e
00000070: 0f7e 653e e630 1c3b 9369 033e 3ce5 833d
00000080: c1a5 6f3d 63d0 6a3d 90ed 4a3e 9f36 b83d
00000090: fcac 15be 8d63 633e 0657 9a3d 78f4 a0bc
000000a0: ae4c 1d3d 74ae 143e dc6b 003d e71a 2cbe
000000b0: ac69 0d3d 08a3 1d3e 6070 053e f585 863d
000000c0: 39e8 223e fe7e e63d cbb1 473d b320 2b3d
000000d0: 0670 993e 366a 8dbd 4b52 c43d 0963 33be
000000e0: 91ce 143e 2434 ff3d ad2d 6b3b 73d3 aabd
000000f0: 3661 adbd 501b a83d 1761 793e eec4 e63c
00000100: 60fb 103e ee92 4b3e 47af 0a3d 3a50 943e
00000110: 8fdd 3e3c e9f6 fcbd 7d37 7bbd 723d dcbc
00000120: 2c19 a13d 8d6c 60bd 23b4 a2bd b664 f93d
00000130: 0cd4 5a3d bae1 cc3d dde8 fa3d 06c8 513e
00000140: 4bd0 363e 402a 173e 11f0 5c3e 3a6d f4bd
00000150: a588 a73d 8d36 db3d 01cc 813e 028d 8ebd
00000160: 6e4d b63d 8a24 03be 18c2 b63d 6de9 b93d
00000170: 21e1 443e 63cb 8d3d 3454 4c3e 4bdb 343e
00000180: 3c9c 7cbd 6cbf c73d d8be 95bd 3589 0c3e
00000190: b3d3 483e 6bfb d13d 23f0 6e3e 62b5 263e
000001a0: c4bc f13d e41b 353d 3078 e33d 8bc0 313e
000001b0: 2547 43bb 0651 a83d 49ff 973c 7f3f 663c
000001c0: 1ac3 cb3d b130 b3bd a4c4 a83d bb64 5e3e
000001d0: f7d3 163e 79d9 5a3e 29ab e7bd 834a c93d
000001e0: e1f7 993d fa0e 073e 30d6 90bd 9049 913d
000001f0: fb7c 8dbd 55ec 2e3c e782 0b3e 3f7b 1d3e

shared_layers.4.weight f4 [128]
1.8935782 0.73770916 1.402746 0.68316233 0.6520021 1.4431177 1.2280289 0.5228575
0.59362054 0.8466224 1.189448 0.72444695 0.5214708 0.42160067 0.71171415 0.6998696
0.5421377 0.89244556 2.5025344 0.42649117 0.8596643 1.0707679 1.3873917 1.3615023
0.7244736 0.3935894 2.039011 0.6190091 0.5108329 0.9587102 0.46682614 0.65299225
0.85363144 1.3004532 0.58411133 1.3831371 1.7419437 0.74997324 0.5961393 0.8028252
0.56963015 0.7127182 1.5952903 1.8514488 0.77132744 0.5830953 1.4624866 0.53644854
0.5192085 0.51642567 0.5228803 0.44277677 1.3460407 1.5510626 0.56954205 1.57439
0.4727599 0.55535895 0.85711884 1.8262373 1.0648369 1.5691205 0.5184211 1.028188
0.9075143 0.5052465 1.216735 1.065502 1.2475235 2.0341275 1.5277314 0.92973673
0.60377014 1.9377705 2.364565 0.4585733 1.3795805 1.210364 1.6941081 1.3196728
0.54507524 0.4359434 0.74520576 1.2568673 0.85010123 1.0855582 0.5807015 1.7031312
0.49377665 2.9528892 1.1777103 0.5615537 0.7241072 0.78749746 0.5536904 0.57163286
1.3306664 0.8775616 1.151221 0.5505003 0.54902935 0.7711301 0.47467414 0.47987375
0.56121314 1.0953405 0.5208035 1.3215768 1.5953866 1.553153 1.0028726 0.7298703
0.87138826 0.6583538 0.43390974 0.6348412 0.47132587 0.33848935 2.0536768 0.48063254
0.966304 1.746447 2.1974611 0.5323347 1.9997091 1.3172957 0.510066 1.5101318
00000000: c560 f23f 82da 3c3f 2e8d b33f bae3 2e3f
00000010: 9ce9 263f 15b8 b83f 0d30 9d3f fdd9 053f
00000020: 84f7 173f 3fbc 583f d53f 983f 5b75 393f
00000030: 1c7f 053f 0bdc d73e e632 363f a72a 333f
00000040: 89c9 0a3f 5077 643f 8629 2040 0d5d da3e
00000050: f612 5c3f ec0e 893f 0d96 b13f b545 ae3f
00000060: 1a77 393f 8d84 c93e 287f 0240 6177 1e3f
00000070: f2c5 023f 086e 753f d603 ef3e 802a 273f
00000080: 9787 5a3f 4075 a63f 5288 153f a30a b13f
00000090: 03f8 de3f 3ffe 3f3f 969c 183f f485 4d3f
000000a0: 48d3 113f b374 363f 7932 cc3f 46fc ec3f
000000b0: b775 453f bc45 153f c332 bb3f b154 093f
000000c0: d9ea 043f 7934 043f 7cdb 053f a3b3 e23e
000000d0: 104b ac3f 3889 c63f 82cd 113f 9d85 c93f
000000e0: 960d f23e 012c 0e3f 246c 5b3f 25c2 e93f
000000f0: 934c 883f f1d8 c83f 3fb7 043f aa9b 833f
00000100: db52 683f d657 013f f9bd 9b3f 5f62 883f
00000110: daae 9f3f 252f 0240 b48c c33f 3a03 6e3f
00000120: ae90 1a3f dd08 f83f 0855 1740 1fca ea3e
00000130: 1896 b03f 35ed 9a3f 89d8 d83f 0aeb a83f
00000140: 0d8a 0b3f f933 df3e cec5 3e3f 07e1 a03f
00000150: 3ca0 593f 92f3 8a3f daa8 143f 3400 da3f
00000160: 4bd0 fc3e 23fc 3c40 36bf 963f fcc1 0f3f
00000170: 175f 393f 6f99 493f a7be 0d3f 8856 123f
00000180: 4753 aa3f e1a7 603f 365b 933f 96ed 0c3f
00000190: 308d 0c3f c868 453f 7d08 f33e 03b2 f53e
000001a0: aaab 0f3f 1e34 8c3f 6153 053f 6e29 a93f
000001b0: a135 cc3f b8cd c63f 215e 803f c8d8 3a3f
000001c0: 4d13 5f3f e089 283f 6b29 de3e f484 223f
000001d0: a051 f13e 7a4e ad3e 716f 0340 7815 f63e
000001e0: b35f 773f 938b df3f 34a3 0c40 1647 083f
000001f0: 78f6 ff3f 259d a83f af93 023f 004c c13f

shared_layers.4.bias f4 [128]
-0.19643268 -0.27565932 -0.31602255 -0.17879066 -0.19761012 0.022896862 0.035092197 -0.2559524
-0.2700688 -0.28434205 0.019294435 -0.34917417 -0.23073095 -0.17767425 -0.26557508 -0.30336636
-0.19144969 -0.3320764 -0.12854256 -0.2045764 -0.32812956 -0.17416547 -0.2670421 -0.31765723
-0.3303652 -0.15782094 -0.15310204 -0.23384446 -0.24638672 -0.27954692 -0.2601237 -0.255451
-0.27325875 -0.063468106 -0.24125072 -0.020028517 -0.30084473 -0.11999761 -0.1683023 -0.34880453
-0.24697137 -0.24665698 -0.40741614 -0.18500546 -0.16099466 -0.29120138 -0.05139087 -0.19887288
-0.26491785 -0.22449407 -0.28711945 -0.19506098 0.08211132 -0.18791558 -0.26978734 -0.3211814
-0.17992616 -0.21271098 -0.16659917 -0.17047904 -0.42675495 0.013813009 -0.20041056 -0.28910026
-0.31835216 -0.19286862 -0.24991427 -0.2711707 -0.28221825 -0.50247175 -0.36279804 -0.33525357
-0.28394085 0.0425726 -0.1433497 -0.18134205 -0.24337749 -0.06709638 -0.2294581 0.025531175
-0.18465412 -0.1829546 -0.39820766 -0.4068597 -0.26339003 -0.22429635 -0.27890775 -0.088761955
-0.2420112 -0.37010968 -0.24555784 -0.14864153 -0.39234293 -0.066616915 -0.25655693 -0.2312676
-0.24587218 -0.34235802 -0.3815752 -0.258903 -0.30808106 -0.2999637 -0.1703722 -0.2736641
-0.44736946 -0.0947063 -0.24625184 -0.014017169 -0.2733878 -0.40355697 -0.25264788 -0.23799261
-0.32047617 -0.22590555 -0.23560496 -0.21483676 -0.17800313 -0.1554358 -0.41968024 -0.23689134
-0.09340251 -0.17559579 -0.2604168 -0.21036154 -0.27312726 -0.29695305 -0.19564421 0.12719579
00000000: a625 49be 3823 8dbe b5cd a1be e614 37be
00000010: 4f5a 4abe 3392 bb3c d6bc 0f3d 310c 83be
00000020: 7546 8abe 4895 91be 5d0f 9e3c f5c6 b2be
00000030: bc44 6cbe 3df0 35be 75f9 87be d652 9bbe
00000040: 630b 44be eb05 aabe a9a0 03be 7a7c 51be
00000050: 9900 a8be 6f58 32be beb9 88be f8a3 a2be
00000060: a125 a9be d09b 21be c8c6 1cbe ec74 6fbe
00000070: cd4c 7cbe c620 8fbe ef2e 85be 79ca 82be
00000080: 92e8 8bbe 91fb 81bd 6e0a 77be d812 a4bc
00000090: 5208 9abe 4fc1 f5bd 7057 2cbe 8296 b2be
000000a0: 10e6 7cbe a693 7cbe d998 d0be 1272 3dbe
000000b0: c9db 24be 5918 95be 3c7f 52bd 55a5 4bbe
000000c0: 50a3 87be c6e1 65be 5201 93be 11be 47be
000000d0: fb29 a83d f16c 40be 9121 8abe e371 a4be
000000e0: 903e 38be e8d0 59be f998 2abe 0f92 2ebe
000000f0: a07f dabe f54f 623c 6d38 4dbe f304 94be
00000100: 0eff a2be 5a7f 45be 87e9 7fbe e3d6 8abe
00000110: e97e 90be fda1 00bf aac0 b9be 5ba6 abbe
00000120: b260 91be 9b60 2e3d 44ca 12be bbb1 39be
00000130: f337 79be d469 89bd 10f7 6abe c126 d13c
00000140: f815 3dbe 7358 3bbe e0e1 cbbe ea4f d0be
00000150: 0fdb 86be f1ad 65be ffcc 8ebe d4c8 b5bd
00000160: c9d1 77be 047f bdbe 8473 7bbe 7c35 18be
00000170: 2ce1 c8be 736e 88bd 6e5b 83be 6ad1 6cbe
00000180: ebc5 7bbe 8d49 afbe d35d c3be ef8e 84be
00000190: cdbc 9dbe d894 99be 0d76 2ebe b31d 8cbe
000001a0: 9c0d e5be 60f5 c1bd 7129 7cbe 45a8 65bc
000001b0: 7cf9 8bbe 059f cebe 105b 81be 56b4 73be
000001c0: 7415 a4be c953 67be 6d42 71be 2bfe 5bbe
000001d0: 7446 36be 902a 1fbe 54e0 d6be a593 72be
000001e0: d149 bfbd 62cf 33be 5a55 85be 0469 57be
000001f0: 56d7 8bbe 3b0a 98be f556 48be 9d3f 023e

shared_layers.6.weight f4 [64, 128]
-0.38871887 0.03562321 -0.2455157 0.10541254 0.28176832 0.5327453 -0.20511037 -0.058580186
0.13502632 0.26504025 0.3050905 -0.04157805 -0.12265853 0.019303015 -0.0058013056 0.038809
-0.17737596 0.23022407 0.98246485 0.074575424 0.018777039 0.115087286 0.17318128 0.03565489
-0.046244718 0.105493166 -0.09620718 -0.074435264 0.1513943 0.2922098 -0.07137537 0.13444917
-0.3398636 -0.037923004 -0.07497632 0.3575859 0.5775747 0.107396014 -0.053677063 0.2229517
-0.0071209753 0.019605318 -0.18825085 0.108493574 0.11810268 -0.20326823 0.08263042 0.17553969
-0.42606002 -0.10645273 -0.119486995 0.23390846 0.2930855 -0.0078034424 0.0101521695 -0.10143595
0.17993385 0.12221307 0.21733603 -0.67120725 0.07681183 0.07725502 -0.17674853 -0.20027752
0.21026914 0.108792104 0.08339519 0.041101858 0.21102464 -0.24467397 -0.42921364 -0.1441684
-0.25541282 0.39753118 -0.19199593 0.1355108 -0.25088006 -0.20502338 0.22796488 0.2512799
-0.051203296 0.0046396516 -0.23845255 -0.3130779 0.10359367 -0.11431064 -0.33013842 -0.6298547
-0.07509815 0.21954505 0.21817455 0.052653577 -0.071261734 0.2525926 -0.004680521 0.04606961
0.07967328 0.06109527 -0.35574582 -0.04259825 -0.30653894 -0.31055817 0.018344108 0.046608698
-0.19128291 0.14354755 -0.16716176 0.27285782 -0.17979878 -0.24583831 0.095839575 0.25429982
-0.12407101 0.013305758 -0.21034488 -0.16486184 0.11500142 -0.019149486 -0.12371248 -0.2885898
0.31904176 -0.16419372 -0.095943175 -0.02268891 -0.39255583 -0.17771111 0.023818975 0.38746977
-0.50058573 -0.12976916 0.25880364 -0.38253504 -0.41215584 0.48950213 -0.19197749 -0.22598276
0.236583 0.224015 -0.06038527 -0.52597976 -0.18313694 -0.1602105 -0.042937975 -0.05407366
-0.076828524 -0.5648416 0.8489952 0.041722726 -0.24914846 -0.5663585 0.31059453 0.066362716
-0.14120279 -0.0099915955 -0.56417006 -0.21082222 0.14426261 -0.30396274 -0.15932705 -0.37878796
0.28481448 -0.22934566 -0.031862237 0.48363242 0.43627015 0.20482062 -0.024050768 -0.15531768
0.1690792 0.10021431 -0.09110781 -0.16200835 -0.3109306 -0.07141505 -0.1153818 0.14501515
-0.06309349 -0.1295883 0.02263225 -0.27347115 0.5053922 0.4291832 0.09998442 0.18175308
-0.08775968 -0.31410792 -0.72050476 0.13237171 0.13518518 0.18871346 -0.07693615 0.07921674
0.086145066 -0.053807177 0.120761976 -0.16998464 -0.00801101 0.1763025 0.14740571 -0.09239617
-0.02108745 0.3200931 -0.2442929 -0.10639715 0.07887947 -0.08436522 -0.19954915 0.4285695
0.16891055 -0.16184358 -0.11964876 0.09891712 0.37513363 -0.19549462 -0.18024144 -0.5085658
-0.35501665 -0.053606723 -0.5541331 -0.22930352 0.14423841 -0.23341693 -0.20200147 0.11483652
0.30660596 0.39794204 0.17607063 -0.05333106 -0.15773259 0.12886766 -0.49711317 -0.07763654
0.23768502 -0.49863964 0.18218143 -0.0081307655 -0.14628063 0.33743766 0.061067086 -0.2888059
0.13398957 -0.3382005 0.1204628 0.001749611 -0.10859191 -0.066293314 0.1931735 0.007340061
0.16845055 -0.46707416 -0.26672527 -0.28575698 0.52221936 -0.18367104 -0.114111036 0.40498832
00000000: 2906 c7be a5e9 113d 7868 7bbe 88e2 d73d
00000010: f043 903e ff61 083f 7408 52be c7f1 6fbd
00000020: 5744 0a3e 5bb3 873e d234 9c3e bf4d 2abd
00000030: 6534 fbbd 5b21 9e3c e118 bebb 30f6 1e3d
00000040: 0ba2 35be dcbf 6b3e d182 7b3f 00bb 983d
00000050: 4ed2 993c e2b2 eb3d 6f56 313e dd0a 123d
00000060: 1a6b 3dbd cd0c d83d 4508 c5bd 8471 98bd
00000070: 1b07 1b3e 869c 953e 402d 92bd 0bad 093e
00000080: 9a02 aebe 2755 1bbd 2f8d 99bd 8015 b73e
00000090: efdb 133f 71f2 db3d 7bdc 5bbd 734d 643e
000000a0: 1257 e9bb 559b a03c d5c4 40be e131 de3d
000000b0: d1df f13d 8c25 50be 233a a93d adc0 333e
000000c0: 8a24 dabe e403 dabd 99b5 f4bd b385 6f3e
000000d0: 4d0f 963e 05b4 ffbb 4955 263c a7bd cfbd
000000e0: 9440 383e d94a fa3d 568d 5e3e 3dd4 2bbf
000000f0: 854f 9d3d e137 9e3d 91fd 34be 8d15 4dbe
00000100: cb50 573e 65ce de3d 19cb aa3d 6c5a 283d
00000110: d816 583e d08b 7abe e4c1 dbbe e2a0 13be
00000120: 78c5 82be 3589 cb3e 959a 44be 58c3 0a3e
00000130: 5a73 80be a6f1 51be a06f 693e c2a7 803e
00000140: 8cba 51bd 3808 983b e82c 74be bf4b a0be
00000150: eb28 d43d b21b eabd e707 a9be 283e 21bf
00000160: 0fcd 99bd 6bd0 603e 2669 5f3e 47ab 573d
00000170: acf1 91bd d153 813e 0e5f 99bb 7db3 3c3d
00000180: bf2b a33d 093f 7a3d 5124 b6be 817b 2ebd
00000190: acf2 9cbe 7b01 9fbe 6246 963c c3e8 3e3d
000001a0: abdf 43be 21fe 123e 742c 2bbe 05b4 8b3e
000001b0: 2c1d 38be 0abd 7bbe 8a47 c43d 9633 823e
000001c0: f118 febd 6500 5a3c a664 57be 8bd1 28be
000001d0: dd85 eb3d 62df 9cbc f85c fdbd 0bc2 93be
000001e0: 7159 a33e 6622 28be db7d c4bd 18de b9bc
000001f0: 14fd c8be e7f9 35be 0320 c33c 7062 c63e
00000200: 6326 00bf 35e2 04be e981 843e a2db c3be
00000210: 1706 d3be 06a0 fa3e bf95 44be 0668 67be
00000220: d042 723e 3064 653e 8b56 77bd 9ca6 06bf
00000230: 4088 3bbe 390e 24be bbdf 2fbd 587c 5dbd
00000240: 4658 9dbd 7699 10bf c057 593f 73e5 2a3d
00000250: c620 7fbe dffc 10bf 3f06 9f3e 2de9 873d
00000260: 7797 10be cab3 23bc 736d 10bf c8e1 57be
00000270: 94b9 133e 01a1 9bbe a126 23be 7ff0 c1be
00000280: 34d3 913e 97d9 6abe fa81 02bd ab9e f73e
00000290: cd5e df3e 7fbc 513e 1e06 c5bc 990b 1fbe
000002a0: 1923 2d3e 293d cd3d bb96 babd 84e5 25be
000002b0: 4c32 9fbe 0e42 92bd 4b4d ecbd da7e 143e
000002c0: 2937 81bd ccb2 04be 4567 b93c 6904 8cbe
000002d0: 6261 013f e6bd db3e a2c4 cc3d 7b1d 3a3e
000002e0: 59bb b3bd c1d2 a0be 0073 38bf 738c 073e
000002f0: fc6d 0a3e 1a3e 413e b390 9dbd 633c a23d
00000300: d36c b03d ea64 5cbd 0e52 f73d 7410 2ebe
00000310: 9c40 03bc a488 343e 86f1 163e 343a bdbd
00000320: 97bf acbc 3ee3 a33e eb27 7abe c0e6 d9bd
00000330: 8f8b a13d acc7 acbd 9d56 4cbe 766d db3e
00000340: e3f6 2c3e 53ba 25be 690a f5bd 0f95 ca3d
00000350: 8411 c03e be2f 48be 3691 38be 5e31 02bf
00000360: bec4 b5be b992 5bbd abdb 0dbf 8bce 6abe
00000370: 3cb3 133e d904 6fbe 79d9 4ebe 692f eb3d
00000380: 75fb 9c3e 0fbf cb3e dc4b 343e ab71 5abd
00000390: a784 21be e2f5 033e 9e85 febe e8ff 9ebd
000003a0: b463 733e b24d ffbe c58d 3a3e e736 05bc
000003b0: 97ca 15be a1c4 ac3e 7b21 7a3d 5ede 93be
000003c0: 9034 093e 9e28 adbe 33b5 f63d 3453 e53a
000003d0: 6f65 debd cac4 87bd 46cf 453e e584 f03b
000003e0: 4d7e 2c3e 5824 efbe 3790 88be bd4e 92be
000003f0: 2bb0 053f 4314 3cbe 0cb3 e9bd a15a cf3e

shared_layers.6.bias f4 [64]
0.13876584 -0.2288133 0.09546933 -0.25526702 0.120407574 -0.16011943 0.13255194 0.016807226
-0.038391054 0.03780981 0.058758933 0.0016590332 0.17605849 0.18230695 0.06083101 0.23789808
0.03147592 -0.004945209 0.092144884 -0.08128038 0.027300883 -0.07941674 -0.17014353 9.372786e-05
0.06811007 0.15882622 0.14136334 -0.0276222 0.14187114 0.1468147 0.1634606 0.027399367
-0.0054514892 0.3095434 -0.04916711 -0.016448464 -0.076248296 0.08821689 0.2638277 0.03524847
0.13089712 0.07570099 -0.038169987 0.13873126 -0.062359307 0.05859096 0.2002585 0.15668894
0.20731117 0.051532455 0.19496213 -0.08437301 -0.11613486 0.048438046 -0.07891061 -0.036528688
0.42304182 0.19856326 -0.11140846 0.13273092 0.005730372 0.008749203 -0.06785219 0.12183784
00000000: a218 0e3e 094e 6abe 6d85 c33d 5cb2 82be
00000010: 3f98 f63d 59f6 23be b2bb 073e 4faf 893c
00000020: f03f 1dbd 76de 1a3d 35ad 703d eb73 d93a
00000030: ad48 343e acae 3a3e f029 793d 8e9b 733e
00000040: e5ec 003d 6b0b a2bb 75b6 bc3d 5476 a6bd
00000050: 1aa6 df3c 3ea5 a2bd 1b3a 2ebe c38f c438
00000060: 4b7d 8b3d 57a3 223e 8dc1 103e f447 e2bc
00000070: ab46 113e 9856 163e 3762 273e a374 e03c
00000080: 68a2 b2bb 797c 9e3e 7463 49bd eebe 86bc
00000090: 1128 9cbd 0fab b43d 6d14 873e b360 103d
000000a0: e509 063e 1f09 9b3d 2258 1cbd 910f 0e3e
000000b0: 796c 7fbd 13fd 6f3d 9010 4d3e 1173 203e
000000c0: 6149 543e b213 533d 27a4 473e c2cb acbd
000000d0: 1dd8 edbd f966 463d e39b a1bd 1b9f 15bd
000000e0: f098 d83e 2b54 4b3e 1e2a e4bd 9dea 073e
000000f0: d8c5 bb3b d158 0f3c 17f6 8abd 1e86 f93d

shared_layers.7.weight f4 [64]
0.9032492 1.6371065 1.7079191 2.2376926 0.9705527 3.0939174 1.7932997 1.0464315
1.5999494 1.0920986 0.92554075 2.4584174 1.0526878 2.3240814 0.81551087 0.9829802
1.5791394 0.82988983 1.7305872 1.5403805 2.067067 1.9146106 2.945682 0.90677905
0.7517691 0.90813446 0.5950897 1.0343848 0.7346832 0.871465 1.2277675 1.1890754
1.801904 1.0226496 1.3955005 0.9893765 2.4697893 0.99592483 1.2200254 0.97691536
0.6396347 1.3042973 1.0371165 0.8886921 1.930892 0.81151825 1.5834589 0.982606
1.3950735 1.1602385 0.67190266 1.9842563 1.1480074 1.0517081 1.1720128 1.7727312
0.44088566 0.8709113 1.1959362 1.3180786 1.1529394 1.0207046 1.7992679 1.617648
00000000: 573b 673f b58c d13f 189d da3f 5b36 0f40
00000010: 2476 783f be02 4640 d88a e53f 78f1 853f
00000020: 24cb cc3f e3c9 8b3f 3df0 6c3f b656 1d40
00000030: 79be 863f c0bd 1440 52c5 503f 97a4 7b3f
00000040: 3d21 ca3f a973 543f e283 dd3f 302b c53f
00000050: d34a 0440 f611 f53f 0e86 3c40 ac22 683f
00000060: f173 403f 807b 683f cc57 183f b966 843f
00000070: 3314 3c3f 5518 5f3f 7c27 9d3f 9f33 983f
00000080: caa4 e63f 2fe6 823f c39f b23f c747 7d3f
00000090: 0711 1e40 eef4 7e3f cb29 9c3f 2017 7a3f
000000a0: 1abf 233f 37f3 a63f 3cc0 843f 5381 633f
000000b0: 7827 f73f a9bf 4f3f c8ae ca3f 118c 7b3f
000000c0: c591 b23f b282 943f d001 2c3f 1cfc fd3f
000000d0: e8f1 923f 5f9e 863f 8404 963f dbe8 e23f
000000e0: c4bb e13e 0bf4 5e3f 7014 993f cdb6 a83f
000000f0: 8593 933f 73a6 823f 694e e63f 170f cf3f

shared_layers.7.bias f4 [64]
-0.112152465 -0.2546161 -0.23818661 -0.2627431 -0.015093019 -0.49211055 -0.11950071 0.011266092
-0.12969437 -0.3973828 0.053614035 -0.48220843 -0.18458705 -0.40666088 -0.14336671 0.011194565
-0.14443013 0.00017732018 -0.2214773 -0.11769678 -0.37653333 -0.2829476 -0.52797073 0.01767014
-0.071558975 -0.61719644 0.03601407 -0.364834 0.03217172 -0.22229543 -0.11468442 -0.18786393
-0.26285598 -0.17234719 -0.2991092 -0.40304905 -0.47081307 -0.08546751 0.032288596 -0.24127273
-0.08514934 -0.13703613 -0.40658376 -0.04820207 -0.09669209 0.00063945213 -0.19488528 0.020691942
-0.217987 -0.19873841 -0.169818 -0.35174674 -0.26562595 -0.3387252 -0.31983802 -0.22222929
-0.2557802 -0.09455905 -0.25178298 -0.07252604 -0.4348399 -0.08695155 -0.21850356 -0.12724763
00000000: 31b0 e5bd 0b5d 82be 31e7 73be 4386 86be
00000010: b648 77bc eaf5 fbbe cabc f4bd 6a95 383c
00000020: 9ace 04be c275 cbbe 649a 5b3d 06e4 f6be
00000030: 6304 3dbe db35 d0be b9ce 12be 6969 373c
00000040: 7ee5 13be 06ef 3939 f2ca 62be 020b f1bd
00000050: fac8 c0be 82de 90be 1729 07bf f8c0 903c
00000060: 838d 92bd 9600 1ebf 7d83 133d 86cb babe
00000070: 7ec6 033d 6aa1 63be aadf eabd 675f 40be
00000080: 0f95 86be c87b 30be d724 99be 725c cebe
00000090: 690e f1be 9709 afbd 0c41 043d 3310 77be
000000a0: c762 aebd 3353 0cbe bf2b d0be 896f 45bd
000000b0: 8106 c6bd e8a0 273a 0290 47be 2682 a93c
000000c0: fc37 5fbe 1582 4bbe c5e4 2dbe 2618 b4be
000000d0: 2000 88be 646d adbe cfc1 a3be 1390 63be
000000e0: 9ff5 82be 2da8 c1bd b3e9 80be 8888 94bd
000000f0: 56a3 debe a713 b2bd 66bf 5fbe 344d 02be

actor_layers.0.weight f4 [32, 64]
-0.12155823 -1.1702088 0.2425972 0.38809824 -0.29902142 -0.08939962 0.09997348 0.12842232
0.7800007 0.43929723 0.3273682 0.12972964 -0.064788096 0.37410617 -0.29060134 -0.2266533
0.087863386 0.09006028 0.17801906 -0.14349857 -0.028804429 0.32953525 -0.08594545 0.031674143
-0.1177651 -0.1536964 0.13225415 0.42526975 0.17087075 -0.27744928 0.04960759 0.5778017
0.5569465 -0.5749126 0.6107241 1.0225029 0.25795642 -0.22342683 -0.10593628 0.70535463
0.013730254 -0.29679176 -0.6885051 0.21634042 0.10975289 0.1447551 -0.09388349 -0.117074825
-0.15232566 -0.30989423 0.35186613 -0.21329817 -0.28899258 0.080549285 0.75881535 0.07975569
-0.5050938 0.19681123 0.22287816 0.2843903 -0.19198108 0.014678662 -0.1472895 -0.03929291
0.16689792 0.09524494 -0.1541148 0.13029179 0.09501273 -0.1911987 -0.24486606 0.08511034
-0.20655657 -0.48203802 0.34022897 0.27675152 -0.27955022 0.15668021 0.2895593 0.17796518
0.18297452 0.2280723 -0.31805462 -0.14204143 0.07429426 0.09361277 0.32537138 0.098796025
0.0019839674 0.25857985 0.120698646 0.103841074 -0.033249114 0.037280478 -0.3860617 -0.27705824
-0.85354453 0.38937387 -0.6001546 -0.92731005 -0.09730562 0.40731242 0.36917576 -0.8591646
0.39225876 -0.094902664 -0.07391102 0.050244447 0.21261874 0.08575294 0.03597574 0.3621437
0.23606114 -0.15166721 -0.27665484 -0.03178313 -0.039516643 -0.40193087 -0.30945647 -0.29958287
0.25254196 -0.20428059 -0.14718162 -0.58619565 0.07184174 0.5535268 0.06647442 -0.10156073
0.11765005 -0.88089085 0.22444426 -0.06925113 0.008305439 -0.017379677 0.22355203 -0.07820683
0.082499646 0.42084593 0.22006904 -0.19058312 0.35888228 0.013798664 -0.33328652 0.096798785
0.11850722 -0.1325709 0.17648977 0.3881794 0.12500225 0.26822457 -0.2092426 0.058062445
0.60795945 0.20143925 0.2964736 0.0030740963 0.107731365 -0.12742306 -0.3241679 0.31995746
0.21920596 0.22588888 0.22857209 0.34418684 0.21383956 0.48151186 0.780449 0.052969217
0.10685336 -0.2346571 -0.3998451 0.2979454 0.37260455 0.1436731 -0.124964505 0.15476047
0.1577631 -0.58671486 -0.05240286 0.29508057 -0.4312909 -0.1548548 0.39089835 0.37341428
-0.25778946 0.032075766 -0.076193795 -0.0656821 0.30600005 0.10478879 0.07596561 0.3731756
-0.011488438 0.25112268 -0.18139583 -0.3764446 0.079992555 -0.38222548 -0.13416296 -0.16463146
0.08526825 0.5408566 0.021197772 0.030502604 -0.071368225 0.33641043 0.15790422 0.33272278
-0.20767325 0.14430358 0.23807578 -0.011234169 -0.03791671 -0.09466393 -0.12528709 0.35107523
0.22313505 -0.27160412 0.29992673 -0.1688573 -0.12052076 -0.24804789 -0.02237818 -0.25304112
0.1616533 -0.12697208 0.2756951 0.55475736 0.13567682 -0.057051864 0.10380674 0.53690255
0.30237865 0.21087423 0.5280738 0.30192482 0.11374072 0.028528947 0.30310863 0.09454413
0.23148711 0.44275722 0.11282906 -0.109170005 0.44534412 -0.11954373 0.54827625 0.098018356
0.019875508 -0.378618 -0.04771036 -0.12162454 0.22351289 -0.10770313 0.23698674 -0.044648178
00000000: 85f3 f8bd 67c9 95bf 676b 783e d0b4 c63e
00000010: 5619 99be 2617 b7bd e5be cc3d 2481 033e
00000020: 20ae 473f 91eb e03e ce9c a73e d9d7 043e
00000030: 9faf 84bd d88a bf3e b3c9 94be cd17 68be
00000040: b8f1 b33d 8671 b83d a14a 363e 4af1 12be
00000050: 44f7 ebbc d8b8 a83e 2b04 b0bd bfbc 013d
00000060: d42e f1bd 9762 1dbe a26d 073e f5bc d93e
00000070: bef8 2e3e d50d 8ebe 5431 4b3d d0ea 133f
00000080: 0c94 0e3f 792d 13bf 6a58 1c3f 60e1 823f
00000090: dd12 843e 01ca 64be 1ff5 d8bd 1f92 343f
000000a0: dcf4 603c 17f5 97be df41 30bf 5888 5d3e
000000b0: 20c6 e03d ae3a 143e fd45 c0bd edc4 efbd
000000c0: 42fb 1bbe 75aa 9ebe cc27 b43e d66a 5abe
000000d0: d6f6 93be 06f7 a43d b941 423f f456 a33d
000000e0: d44d 01bf e288 493e 2c3a 643e 9b9b 913e
000000f0: b096 44be c57e 703c 0fd3 16be 9af1 20bd
00000100: 4ae7 2a3e c70f c33d 45d0 1dbe 366b 053e
00000110: 0996 c23d 98c9 43be 2bbe 7abe 544e ae3d
00000120: 9183 53be b0cd f6be 7e32 ae3e 60b2 8d3e
00000130: 3521 8fbe c770 203e 1e41 943e 813c 363e
00000140: ac5d 3b3e c98b 693e 0ed8 a2be 4f73 11be
00000150: 9727 983d 0db8 bf3d 1497 a63e 9255 ca3d
00000160: 7305 023b 9464 843e da30 f73d a1aa d43d
00000170: 3930 08bd 6ab3 183d e1a9 c5be 94da 8dbe
00000180: e581 5abf 035c c73e bba3 19bf 3164 6dbf
00000190: 2b48 c7bd 418b d03e 9b04 bd3e 36f2 5bbf
000001a0: 24d6 c83e 545c c2bd a95e 97bd 1fcd 4d3d
000001b0: bab8 593e 3d9f af3d 4c5b 133d e66a b93e
000001c0: 03ba 713e a64e 1bbe b4a5 8dbe 072f 02bd
000001d0: 34dc 21bd e2c9 cdbe 1471 9ebe ed62 99be
000001e0: 2e4d 813e ee2e 51be c7b6 16be eb10 16bf
000001f0: c321 933d efb3 0d3f be23 883d 12ff cfbd
00000200: 82f2 f03d 1082 61bf b7d4 653e 89d3 8dbd
00000210: 8913 083c d35f 8ebc d3ea 643e e72a a0bd
00000220: 93f5 a83d 1e79 d73e c759 613e 3928 43be
00000230: 6bbf b73e cb13 623c 88a4 aabe 713e c63d
00000240: eab3 f23d aac0 07be bcb9 343e 73bf c63e
00000250: 9700 003e bb54 893e b143 56be e3d2 6d3d
00000260: 3ba3 1b3f 1746 4e3e 63cb 973e c776 493b
00000270: 43a2 dc3d 317b 02be 56f9 a5be 77d1 a33e
00000280: 8777 603e 6a4f 673e cd0e 6a3e 4239 b03e
00000290: c2f8 5a3e b988 f63e 81cb 473f 40f6 583d
000002a0: efd5 da3d f349 70be 7fb8 ccbe 4d8c 983e
000002b0: 06c6 be3e 0b1f 133e 64ed ffbd 8779 1e3e
000002c0: a68c 213e f232 16bf 62a4 56bd cd14 973e
000002d0: 29d2 dcbe 4292 1ebe d423 c83e 2830 bf3e
000002e0: fbfc 83be e161 033d 7e0b 9cbd 5684 86bd
000002f0: 0aac 9c3e 819b d63d dc93 9b3d df10 bf3e
00000300: 003a 3cbc 2793 803e d4bf 39be 59bd c0be
00000310: 23d3 a33d 0fb3 c3be 0462 09be 2695 28be
00000320: 1fa1 ae3d 9475 0a3f f3a6 ad3c 99e0 f93c
00000330: 8129 92bd fd3d ac3e a5b1 213e a45a aa3e
00000340: 4ca8 54be 51c4 133e 23ca 733e 850f 38bc
00000350: 8d4e 1bbd 2adf c1bd 424b 00be 22c0 b33e
00000360: 847d 643e b20f 8bbe ff8f 993e eee8 2cbe
00000370: 97d3 f6bd 4400 7ebe 7252 b7bc 9b8e 81be
00000380: 7188 253e f804 02be e827 8d3e 9404 0e3f
00000390: ddee 0a3e 37af 69bd a198 d43d 7272 093f
000003a0: 60d1 9a3e 6aef 573e d82f 073f e495 9a3e
000003b0: e5f0 e83d 8ab5 e93c 0e31 9b3e 5aa0 c13d
000003c0: f50a 6d3e 13b1 e23e ec12 e73d 8694 dfbd
000003d0: 2504 e43e 58d3 f4bd d55b 0c3f d9bd c83d
000003e0: f6d1 a23c 38da c1be f06b 43bd 4916 f9bd
000003f0: 90e0 643e 7593 dcbd a7ac 723e 02e1 36bd

actor_layers.0.bias f4 [32]
-0.10240091 0.24406931 0.29538682 -0.3081105 0.087688014 -0.23210472 0.36243314 -0.055980083
0.22582918 0.3380116 -0.0012287772 0.07596716 -0.16913915 -0.17918095 0.3308164 0.2560682
0.29715648 0.16329594 -0.33509442 0.4305203 -0.16672896 -0.045643147 -0.20147964 0.045031898
-0.31443167 -0.65621454 0.33311257 -0.30965242 0.35646278 -0.08703032 0.33476418 -0.38215166
00000000: 91b7 d1bd 4eed 793e f13c 973e a9c0 9dbe
00000010: c695 b33d dcac 6dbe d690 b93e 5f4b 65bd
00000020: c43f 673e db0f ad3e ec0e a1ba ac94 9b3d
00000030: d032 2dbe 367b 37be c460 a93e 5f1b 833e
00000040: e524 983e 0d37 273e 7f91 abbe 286d dc3e
00000050: ffba 2abe 4ff4 3abd ae50 4ebe 5e73 383d
00000060: 30fd a0be adfd 27bf bb8d aa3e c38a 9ebe
00000070: 4a82 b63e f43c b2bd 3666 ab3e 62a9 c3be

actor_layers.1.weight f4 [32]
0.65467626 0.96825165 0.89287263 0.85053295 0.93716544 0.942456 0.8722398 0.8286624
1.031668 0.9718899 0.37710136 1.1806228 1.2527819 0.7356883 1.1070082 1.0223349
0.9907782 0.7395566 0.99791867 1.140939 0.7881233 0.519257 0.97313 0.5592579
0.7926151 1.1819384 1.0427237 0.6428788 0.9339905 0.6362544 0.8955557 0.74316865
00000000: dd98 273f 57df 773f 4d93 643f 87bc 593f
00000010: 13ea 6f3f cc44 713f 1c4b 5f3f 3823 543f
00000020: b20d 843f c7cd 783f 6e13 c13e a61e 973f
00000030: 285b a03f 1256 3c3f 72b2 8d3f dfdb 823f
00000040: a4a3 7d3f 9553 3d3f 9977 7f3f 4a0a 923f
00000050: 73c2 493f 07ee 043f 0c1f 793f 872b 0f3f
00000060: d3e8 4a3f c249 973f f877 853f b493 243f
00000070: 001a 6f3f 91e1 223f 2343 653f 4d40 3e3f

actor_layers.1.bias f4 [32]
-0.117054805 0.1978983 0.008709367 -0.4880368 0.106027216 -0.24899527 0.27942264 -0.22607283
0.22789237 0.25169504 -0.40447286 0.10258895 -0.26288873 -0.10192383 0.064988464 0.1537145
0.17168553 -0.4011149 -0.4134279 0.28010985 -0.4707897 -0.3313101 -0.16363162 -0.59361523
-0.4482634 -0.17156602 0.13737717 -0.49837115 0.20048141 -0.47749764 0.28469858 -0.50785816
00000000: 6eba efbd daa5 4a3e bcb1 0e3c f6df f9be
00000010: cc24 d93d 9ef8 7ebe 7c10 8f3e a37f 67be
00000020: 9e5c 693e 2cde 803e 1117 cfbe 281a d23d
00000030: 5a99 86be 71bd d0bd ac18 853d 5567 1d3e
00000040: 55ce 2f3e ef5e cdbe d2ac d3be 8f6a 8f3e
00000050: 590b f1be 7aa1 a9be 0c8f 27be 2bf7 17bf
00000060: c882 e5be 01af 2fbe 9aac 0c3e 812a ffbe
00000070: 004b 4d3e 927a f4be 03c4 913e fe02 02bf

actor_layers.3.weight f4 [2, 32]
-0.20004992 0.13576226 0.20969246 -0.5236765 0.050638873 -0.39781544 0.26731864 -0.20710139
0.2649709 0.16260366 0.016678507 0.48082265 -0.71600854 -0.35735434 -0.15499978 -0.11510786
0.122106805 -0.11079056 -0.67021465 0.4578645 -0.23215681 -0.0044883518 -0.526187 0.1528687
-0.039833453 -0.028505933 0.14725688 -0.21333413 0.29972005 0.042473704 0.051414665 -0.48202255
-0.26795837 -0.37722248 -0.0685154 0.53002644 -0.114522785 0.53066003 -0.1764973 0.17805347
-0.19775027 -0.4004801 0.102732524 -0.030338142 0.6633006 -0.38589555 -0.29322812 -0.42196524
-0.16515832 0.109139085 0.50147974 -0.067313775 0.17647621 -0.10517652 0.28150102 0.3288987
0.39094627 0.33212668 -0.116891295 -0.03923004 -0.034063082 0.08289042 -0.2862535 0.09397329
00000000: e3d9 4cbe 4305 0b3e 9fb9 563e aa0f 06bf
00000010: b56a 4f3d 77ae cbbe fddd 883e 6312 54be
00000020: 44aa 873e 9381 263e 5da1 883c 632e f63e
00000030: 564c 37bf 26f7 b6be 43b8 1ebe abbd ebbd
00000040: 2213 fa3d 29e6 e2bd 3093 2bbf 376d ea3e
00000050: 84ba 6dbe 0613 93bb 31b4 06bf 9d89 1c3e
00000060: 6728 23bd 4685 e9bc 82ca 163e 4374 5abe
00000070: e874 993e e8f8 2d3d 2f98 523d a9cb f6be
00000080: d731 89be 4e23 c1be cd51 8cbd d0af 073f
00000090: ec8a eabd 56d9 073f b5bb 34be a653 363e
000000a0: 0c7f 4abe ba0b cdbe 6e65 d23d b287 f8bc
000000b0: 11ce 293f 1a94 c5be ff21 96be d40b d8be
000000c0: 431f 29be 5084 df3d fa60 003f cedb 89bd
000000d0: 2eb6 343e ca66 d7bd e720 903e 6965 a83e
000000e0: 1c2a c83e 820c aa3e b464 efbd aeaf 20bd
000000f0: bb85 0bbd 74c2 a93d d28f 92be 1175 c03d

actor_layers.3.bias f4 [2]
0.47350195 -0.47530633
00000000: d96e f23e 5a5b f3be
